Turtle/results/turtle1/Turtle/Turtle-76841.onnx (onnx, 76635 bytes, 6 tensors)

network_body._body_endoder.seq_layers.0.weight f4 [128, 5]
00000000: 5afd 063f 7f91 1b3e 3933 1bbf 07a7 f63e
00000010: a97e 93be 5036 9cbd 9cec 503d 9140 4bbe
00000020: 524d 25bd 72e4 2fbd 7a95 0fbe 5fb3 48be
00000030: c272 d23e 848d 10bf fb0a 08bf 4b21 5a3e
00000040: 6561 0b3e 59fb f6bd 9734 833e ed27 043f
00000050: c328 693d a16d ee3e dbac 98bf 38cb 493f
00000060: c6df 983e 4072 aebe 9a36 ce3e 8b31 85bf
00000070: 010d 3fbb d9c2 3c3e a52f c63e ef4e 4bbe
00000080: 6352 8cbe 92c4 5b3f 10d3 293f c32d 25be
00000090: f715 babe 3c82 723e 4580 c6be 931a 50bf
000000a0: 6118 3abf bd8e 6b3c f06c 093f 9941 25be
000000b0: 55cb 173f 0cf0 783e 67c2 2ebf cdcf 4f3e
000000c0: d8cc 9c3e 4e21 8aba 58a1 d33e 64f7 5abe
000000d0: 6ad0 f4be a278 183e cb73 94be 2e54 a5bc
000000e0: 3495 3bbe 7dfa d13c 3376 07be 499e 883e
000000f0: ce9d 9d3d 2c78 183f bd79 8bbd d10f 9d3d
00000100: af7e 00bf 78c8 d43e 7095 013f ca0d 973e
00000110: 0f38 d93e 7db6 15bf 59ef 453f b163 1e3f
00000120: b1dc fdbd e2da 7ebe e2dd 70bf f52f 2f3f
00000130: aa51 8ebe a8d1 2fbf 39f3 65be 78eb 7fbe
00000140: c1ae 55bf 1480 363e c4f4 5e3f 6d90 1cbe
00000150: 27e4 613e 84f8 d13e 8e28 1ebe f77a 4c3e
00000160: 0fb6 043e 647a 57be c8d0 783f 0ccc 913e
00000170: 561a 0abe 99a7 d6bd e9c6 79be 68cc d9be
00000180: 7f7e 6f3e 2134 38be 937d 2ebe 2730 50bf
00000190: 9a7b 6cbf eeb9 373e 3ad9 79bf bfe0 413e
000001a0: bfbc f3be 77a5 4c3f be88 a5bf 5a43 633d
000001b0: af16 e5be 73a6 1c3f 0ba2 d83e af7d 5f3e
000001c0: 87fe f33d 69ba 573f 01ab adbe 675a 4dbd
000001d0: 54da 86bf 27d3 34be 48da 36bf 6154 ccbe
000001e0: 5129 dd3e c19d 20be 2aeb 853d 8dca 883e
000001f0: 87a7 ccbd e24d 00bf 71b2 40bf ca16 5e3d
00000200: 1673 d63e 4ece 32bf 1900 7b3e 8d22 8d3e
00000210: 669d d2be 06ab 0b3f e1e3 5abc 9805 953e
00000220: 9791 fb3c 3001 29bc d88f a1bd c975 9cbe
00000230: b207 973e 0cf8 1ebf 307f 2f3d 0e76 983e
00000240: 224f 173f 2526 0dbf 0411 833d 5ea2 813f
00000250: 9497 6f3e 24bc ea3e a282 c0be ee0e 043e
00000260: aff0 54bf ff50 8a3e a3f8 f5bb b9a1 ce3c
00000270: ad1c d3be d363 213f d5e3 6bbd 4f29 b3be
00000280: 9bfe 8c3e f5e5 543f 8c9a 2e3f a0fb 053e
00000290: 238e 4c3f 5076 b63e 4b83 d8b9 fe8f aa3e
000002a0: c919 5b3e bd50 3f3e ef86 b83e b64a a33f
000002b0: 7b22 783f 6476 b1be 0b5d 213e 1ef2 9abe
000002c0: fc7d dabd 45f6 263f f687 933e 5d57 b93e
000002d0: ce64 d63e 1e1a ac3e c73f 243f fa35 9abe
000002e0: 8f83 c7be b726 b6be 2f2d 0ebf 5a57 3a3f
000002f0: 39c6 8ebe 3697 f2be 85e2 913d 9de1 40bf
00000300: a16f 373e f8e7 72be aa46 acbd 350a 373c
00000310: bdf8 e1bd 62a1 803e 6ff5 ffbe 4f42 373c
00000320: 4b05 f03e 2114 9c3d 1f88 103f 7251 6b3e
00000330: a883 f0bd 67d7 da3e fe56 333e 8e6e 303c
00000340: aa4a 2cbe 7605 213f e235 723e 8060 d43e
00000350: 0928 2b3e d185 50bf 9193 e53e b9ca 9dbe
00000360: 0068 963e dfde c53e d29f 023f ce67 26bf
00000370: 3e8c a9bb 372c 533e e445 b63e c70f 443f
00000380: 95c1 d2be d6dd 96be 67c1 bf3e e357 423d
00000390: d243 b3be 77ce 0bbe 37d5 b43e 4186 073f
000003a0: 62b4 293f a660 5e3e 8f8e 7e3d 4d9d 023f
000003b0: 1e82 4e3f ab70 66be 1708 a6bf dbd0 7bbf
000003c0: b00d 1ebf 2850 7a3c 7280 7dbd 0780 c9bd
000003d0: 1d78 fd3e fe76 e73e 50f1 40be 58d9 323f
000003e0: a4b3 1c3e 893b 8fbe 698e 8c3e 66ad 0e3f
000003f0: 098b e73d ffa7 53bd bbf6 8d3e bd97 ea3e
0.52730334 0.15192221 -0.60625035 0.48174307 -0.28807572 -0.07627547 0.0510069 -0.19848849
-0.04035694 -0.04294247 -0.14021865 -0.19599675 0.41103178 -0.56465936 -0.53141755 0.21301763
0.13611372 -0.120596595 0.2562606 0.5162342 0.05692364 0.46568015 -1.1927751 0.7882571
0.29858226 -0.3407154 0.40276033 -1.0405744 -0.0029152038 0.18433703 0.38708225 -0.1985433
-0.27406606 0.8584682 0.6633768 -0.16130738 -0.36344883 0.23682493 -0.38769737 -0.8129055
-0.7269345 0.014377293 0.5368185 -0.16138305 0.59294635 0.2431032 -0.68265384 0.20294113
0.30625033 -0.001053849 0.41334033 -0.21383435 -0.47815257 0.14889768 -0.28994593 -0.020181742
-0.18318635 0.025632137 -0.13228683 0.26683262 0.076961145 0.5955837 -0.06810329 0.07669032
-0.50193304 0.41559196 0.5061865 0.29502708 0.42425582 -0.5848158 0.7731834 0.61870867
-0.12395609 -0.24888185 -0.94088566 0.6843255 -0.2779668 -0.68679285 -0.22456063 -0.24992168
-0.8346978 0.17822295 0.8709223 -0.15289469 0.2205969 0.41009915 -0.15445158 0.19968782
0.12960075 -0.21042782 0.97193575 0.28475988 -0.13486609 -0.104811855 -0.24392284 -0.42538762
0.23388098 -0.17988636 -0.1704009 -0.81323475 -0.923761 0.1794202 -0.97597086 0.1893339
-0.4760494 0.7993998 -1.2932355 0.055484153 -0.4474387 0.6119148 0.4231113 0.21825288
0.119137816 0.84268814 -0.33919528 -0.050135043 -1.0535378 -0.17658673 -0.7142682 -0.39908126
0.43195584 -0.15685178 0.065389946 0.26717034 -0.09992891 -0.5011884 -0.7527228 0.054220952
0.4188468 -0.69846046 0.24511756 0.27565423 -0.4113571 0.54557836 -0.013359995 0.2910583
0.030709071 -0.0103152245 -0.07888764 -0.30558613 0.2949806 -0.6209724 0.042845905 0.2977757
0.5910512 -0.5513633 0.0639973 1.0127676 0.23397666 0.45846665 -0.37599665 0.1289632
-0.83179754 0.2701492 -0.0075064464 0.0252236 -0.41232815 0.63042945 -0.057590324 -0.34992453
0.27538 0.83163387 0.6820457 0.13084269 0.79904383 0.3563714 -0.0004129655 0.33312982
0.21396555 0.18683143 0.36040446 1.2757175 0.96927613 -0.34660637 0.1575815 -0.30262846
-0.10668561 0.6521953 0.28814667 0.36199465 0.41873783 0.33613676 0.64159817 -0.30119306
-0.3896756 -0.35576412 -0.55537695 0.7278954 -0.27885607 -0.4738099 0.07123283 -0.7534426
0.17913677 -0.23721302 -0.084119156 0.011171867 -0.11033771 0.25123125 -0.49991938 0.011185243
0.46879038 0.07621027 0.56457704 0.22980288 -0.117438614 0.42742464 0.17513654 0.010768546
-0.16825357 0.6289896 0.23653367 0.41479874 0.16714491 -0.8145419 0.44839147 -0.30818728
0.2937622 0.386466 0.51025116 -0.65002143 -0.005174189 0.20622335 0.35600197 0.76586574
-0.41163316 -0.29466122 0.37452242 0.047447097 -0.3501268 -0.13652979 0.3531892 0.5293923
0.6629087 0.21716556 0.062147673 0.5102127 0.80667293 -0.22503917 -1.2971219 -0.98365563
-0.61739635 0.0152779 -0.061890073 -0.098388724 0.49505702 0.4520797 -0.18842053 0.6986289
0.15302902 -0.2797511 0.274524 0.55733335 0.11305816 -0.051673885 0.27727303 0.45818892

network_body._body_endoder.seq_layers.0.bias f4 [128]
00000000: cb51 4f3c f086 33bb 22ae 833c 8862 06bb
00000010: 9960 59bc a4e5 893a e82a 63bc 6618 993c
00000020: ef50 7abb cf4d b8bc 830c 7d3c 946f 99bb
00000030: 0d5b 17bc b7a3 a23c 23a7 863c 9fa7 a83b
00000040: 56aa bd3b 1c97 623a 7f81 773c 8152 043c
00000050: a315 afbb 948b c43b 3795 713c 5cc2 71bc
00000060: b8b0 8c3b 5c4b 903c 15b3 5fbc e232 923c
00000070: a16b 43bb 67af b43c 10e2 35bc be15 6b3c
00000080: 50ec 8d3c 2fdd e1b9 8565 903c 665c bf3c
00000090: bc62 8b3c 4f8b e9b9 6745 54bb 4a4a 3c3c
000000a0: 5aaf 303c d2b3 7d3c c114 4ebc bed8 8c3c
000000b0: b477 593a 4fa0 be3b c642 8a3c f849 f13b
000000c0: c16b 31bc ee04 de3b 1c0d 863b 791d 02ba
000000d0: 80b9 60b9 c292 e83b 0c0a 1e3c 5863 313c
000000e0: ccb3 913c e328 51bb 8faf 153c 3c29 103c
000000f0: c186 183c 4fb9 703c 21a8 ce3c 9475 b43b
00000100: a658 bfbb aa20 793b f917 a23b c505 a63c
00000110: d13a 913a 45c2 a53c f384 253c 83c2 c13b
00000120: 6d1c 7d3c 448f c6ba 544b 8c3c dbe3 aa3c
00000130: ab1c b6bb 670f e1bb 95e9 30bc be72 b33b
00000140: bc3a 083c eb64 30bb 8017 913c 77e6 9a3c
00000150: 6c20 a6bb 8ceb cb3a eac3 9f3c f48d 92bb
00000160: 47dd 5bbb 68f6 983c 7a04 703c 771f abbc
00000170: ff3f 7a3c c977 68bc ce57 813c c839 b93b
00000180: 6c99 3fbc 02e6 5ebc 87c5 87bc 3e68 773c
00000190: b8c8 bf3c e63a a23c 0e05 693c cc92 c73a
000001a0: 2b50 1d3c 2dc9 a13c c2a7 8c3b a52c 32bc
000001b0: 0047 213a 7407 cd3b 40e3 1b3c d838 953c
000001c0: a65c 9e3c c87a 413c abd5 a23b c3a0 a83c
000001d0: e972 b13b 9afe 823c 01d0 34bc 053b 04bc
000001e0: 555b 4dba 1e0a 373c f8fd 17bb 77e3 9cbc
000001f0: 22c6 8b3c 6f4b 13bc d111 2e3c 88b0 0abc
0.012653778 -0.0027393661 0.016074244 -0.0020505507 -0.01326766 0.0010520709 -0.01386521 0.018688392
-0.0038195213 -0.02249804 0.015444878 -0.0046824906 -0.009238017 0.019853456 0.016437119 0.005146935
0.005788128 0.0008643733 0.015106558 0.008076311 -0.0053431555 0.0059980843 0.014745048 -0.014755812
0.0042935275 0.01761406 -0.013653536 0.017846528 -0.002981879 0.022056295 -0.011101261 0.014348445
0.017324597 -0.0004308014 0.017626533 0.023359489 0.017014854 -0.00044545016 -0.003239 0.011492321
0.010783995 0.015484767 -0.01257819 0.017193194 0.000829573 0.00581745 0.016877543 0.007363554
-0.010828913 0.00677549 0.004090918 -0.0004963498 -0.00021431409 0.007097573 0.00964595 0.010826908
0.01778593 -0.003191524 0.009136095 0.008798894 0.009309472 0.0146926185 0.025226654 0.0055071805
-0.005839425 0.0038013854 0.0049467054 0.020266423 0.0011080151 0.020234236 0.010102498 0.00591308
0.015448672 -0.0015148898 0.017125763 0.020860603 -0.0055576167 -0.006868291 -0.010797878 0.005476325
0.008314785 -0.002691562 0.017711401 0.018908722 -0.005069783 0.0015557869 0.019502599 -0.0044724885
-0.003354864 0.018672183 0.014649505 -0.020889027 0.015274047 -0.014188715 0.015788939 0.00565264
-0.0116942935 -0.013604643 -0.01657368 0.015100537 0.02341114 0.019803476 0.014222397 0.0015226244
0.009601633 0.019749248 0.004292459 -0.010874902 0.00061522424 0.006256992 0.00951463 0.018215582
0.019331288 0.0118090585 0.004969319 0.02058447 0.0054153097 0.015990544 -0.01103592 -0.008070712
-0.0007833739 0.011171846 -0.0023192149 -0.019151432 0.01706225 -0.008990153 0.010624365 -0.00846494

network_body._body_endoder.seq_layers.2.weight f4 [128, 128]
00000000: eb00 b7bd d177 e0bc 2ab5 89bc 35fc cb3d
00000010: ffe5 3e3d f2b5 8a3d ccf7 d4bc 5b35 75bd
00000020: 6a3c a7bd a06a dc3c 278d f43d 4442 dc3c
00000030: df0f 84bc cc0e 9dbc 8655 13bc a693 d7bc
00000040: 95dc 41bd 5059 3f3d 1bec 393d a65c de3c
00000050: 78e4 063d c906 953d 1e16 4fbc afad e4bc
00000060: cb3b 823c 98a5 ba3d 1601 173e cef9 c0ba
00000070: 6f79 873d 6d1e 0f3d 16f5 27bc 7923 55bd
00000080: c2ac 4a3d 2c53 43bd 84a8 583d 1b94 1cbc
00000090: 195a c3bc 6f64 1cbe 6b02 b23b 6940 d83d
000000a0: 0035 ed3c 7b79 3fbd dddb 243c ba3d 713e
000000b0: 74fe 643d 9688 ad3b 7694 5bbd 5ab9 be3d
000000c0: 296c 4abd 645b c3bd 17a1 12be 5fde 8bbd
000000d0: 6a26 47bd 25ff cc3d 717b 43bd 6bae 203e
000000e0: d294 a9bd 2eb1 a23c a204 873d b1ef 7b3e
000000f0: 1720 5a3e 0fd8 e4bd 2279 813d 87ad 13be
00000100: a346 7abc 0553 62bd b256 8d3d 2ba0 a53d
00000110: 1cfe 05be 3755 99bd 8f0a 9ebc 3369 fabd
00000120: e0e5 7e3d 191b 8abc 521e 1f3e 5519 56be
00000130: c488 163e ab98 ce3d 657f 2f3e 470a 67be
00000140: cf68 163e 980d 873d 18f4 85bd e7ed 9d3c
00000150: a6c7 d5bd c843 493c 3d1a 27bc f95b a6bd
00000160: fc16 fa3c 0a55 023d 7fb0 013e afa0 98bb
00000170: 828f 22bd a57d be3d d494 3d3d 557f debc
00000180: d65f 5a3c aaf7 0bba 2763 bfbb aab1 5ebc
00000190: 68b4 1cbd 146f c63d 2b01 903d c06d 3d3e
000001a0: 26ad 8a3d 3246 043d aec8 cabd fd86 fabc
000001b0: 094d e4bd daf3 a6bd b3c9 dcbd 8faf 8fbd
000001c0: a2b5 c73d 2416 043b 46b6 17be e013 bc3d
000001d0: 5288 873d 734e cebd e24e b93d 045a 023d
000001e0: f842 323d 3f77 7abd 28e8 22be b901 213e
000001f0: 5941 16bd 512c 30be b817 15be 1e1d 8dbd
00000200: b72d ddbd fd5b 48bc c88b e9ba 75de d1bd
00000210: 839f b63c ce13 703d 7c07 9abc b726 d2bc
00000220: d2f3 db3d ddb8 59bb 5a21 a6bc e33f bf3d
00000230: df2b 0d3e df21 853d d678 4cbd 5572 de3d
00000240: 7ab6 703d 6b42 47bc dcd7 1a3e 2453 14be
00000250: 42c6 1f3e d833 cc3d cd03 c43d 68b2 09be
00000260: c110 593d 2a4e 21be e123 abbb d918 c93d
00000270: 234b 943d 405b fb3b 3b15 e0bd 34b3 103e
00000280: 3970 cb3c 4735 8b3c 119f 91bd c83c 483e
00000290: b452 523d ae07 fabd 21cf 493e dcaa ff3d
000002a0: f40d d73d 9c05 a8ba 1aed 0b3e c85e fdbd
000002b0: 5b3f 003d 2ac7 a03d 8b15 f03c 1fd6 16be
000002c0: 22a9 033d 1b88 14bc c858 b7bc 33ed 9c3d
000002d0: 50ea a1bd 8e01 453d e03e d4bc 15c0 c23d
000002e0: 352b fdbd 2cae a83d 0653 c13d c223 0ebd
000002f0: ad69 33bd e25e 08bd 8ed9 17bd b779 27bc
00000300: 2b24 75bd 5993 7cbc a575 f6bc 3e68 c53c
00000310: 6775 5ebd 60d5 7abd be62 c9bd f2e2 8b3d
00000320: 1b71 f73d acbc 5e3d 9981 13bc c4fe a5bd
00000330: 8b42 433d 4176 95bc fbd5 84bd cb59 d9bc
00000340: 06f0 d03c 777f c73a fa0f ba3d e110 453e
00000350: 5b06 a43c 06a5 19be 469b 0bbd b74b 8a3d
00000360: ddaa 573d 198f 943c 2150 5b3c dd02 88bd
00000370: c524 6abd 77aa 293c d448 c13d 765c 813d
00000380: 28e7 b03d 622f 043e 9bf1 e73c 3de4 c43d
00000390: 9ac8 c53d fd08 16bd ed8a 4bbd be36 fcbd
000003a0: 11b8 db3d f8b8 c53d 64d4 debc 09ff 983c
000003b0: 25e6 6d3d d6d9 0a3d 1e80 15bd 82e3 7dbd
000003c0: 0b0b 6c3d decc cd3d a089 bf3d 911f 8c3a
000003d0: c4de 65bd 9bf2 84bd 3bb6 443d af8b bdbd
000003e0: 9bd3 8a3d de44 d83d 7362 25be 4aa3 aebd
000003f0: 7149 193d b698 c3bd 63aa 483d 92fa 9e3b
-0.08935722 -0.027400883 -0.016810019 0.09960214 0.04660606 0.067729846 -0.025997065 -0.059865337
-0.0816582 0.026906312 0.11940985 0.026887067 -0.01612085 -0.019172095 -0.008992558 -0.026315521
-0.047329504 0.046716034 0.045391183 0.027143788 0.03293273 0.07276685 -0.0126395505 -0.02791485
0.015897652 0.09113616 0.14746508 -0.0014722885 0.066149585 0.034941126 -0.010251304 -0.052035782
0.04948116 -0.04768674 0.052895084 -0.0095567955 -0.023846673 -0.15272687 0.005432417 0.1055916
0.028955936 -0.046746712 0.010062185 0.23558703 0.055906728 0.0052958233 -0.05360838 0.09312697
-0.049419556 -0.09538916 -0.14319263 -0.06829523 -0.04862062 0.100096025 -0.047725145 0.15691535
-0.08280338 0.019859876 0.065926805 0.24603154 0.21301304 -0.111740224 0.063219324 -0.14421664
-0.01527563 -0.055254955 0.069013014 0.0808719 -0.13085216 -0.074869566 -0.019292144 -0.122270964
0.062230945 -0.016858624 0.1553891 -0.20908101 0.1470061 0.10087713 0.17138441 -0.22562514
0.14688419 0.0659439 -0.06540698 0.01927848 -0.104384705 0.012284227 -0.010199127 -0.08123011
0.030528538 0.03181938 0.12664984 -0.004657827 -0.03968764 0.093013085 0.04628451 -0.027160326
0.013328513 -0.0005339334 -0.0058406773 -0.013592163 -0.038257986 0.09689155 0.07031473 0.18498898
0.06771307 0.032293506 -0.09901558 -0.030581946 -0.11147506 -0.0815198 -0.107806586 -0.07015907
0.097514406 0.0020154798 -0.14815626 0.09183478 0.06617798 -0.10073557 0.09048249 0.031824127
0.043520898 -0.06114888 -0.15908873 0.15723313 -0.036683414 -0.17204405 -0.14559829 -0.06890319
-0.10799735 -0.012228963 -0.0017818147 -0.102475084 0.022292858 0.058612637 -0.018802397 -0.025653226
0.107398644 -0.003322176 -0.020279575 0.09338357 0.13786267 0.06500601 -0.049919926 0.10861651
0.058767773 -0.012161831 0.15121406 -0.1448484 0.15602973 0.09970826 0.095710374 -0.13446963
0.052994493 -0.15752473 -0.005222783 0.098191924 0.07240894 0.00767079 -0.109415494 0.1413086
0.024833785 0.016993178 -0.07110418 0.19554436 0.051348403 -0.12208496 0.1970792 0.12483761
0.10500708 -0.0012819055 0.13664666 -0.12371594 0.03131042 0.078504875 0.029307147 -0.14730118
0.03214372 -0.009065653 -0.022381201 0.0766243 -0.0790602 0.048097186 -0.025908887 0.09509293
-0.12361757 0.08236346 0.094396636 -0.03470207 -0.043801952 -0.033293612 -0.03707271 -0.01022189
-0.059848946 -0.01541599 -0.030085394 0.024097558 -0.054311182 -0.061238647 -0.09833287 0.06830396
0.1208212 0.05437915 -0.009003066 -0.08105233 0.047670882 -0.018244864 -0.06486126 -0.026532074
0.025505077 0.0015220483 0.090850785 0.1924472 0.020022562 -0.15004358 -0.034083627 0.06752723
0.052653182 0.01813464 0.013385803 -0.06641171 -0.057163972 0.010355583 0.09437719 0.06316464
0.086378396 0.129087 0.028313449 0.096138455 0.09657402 -0.036629666 -0.049693037 -0.12315129
0.10728467 0.096544206 -0.027200885 0.018676298 0.05808081 0.03389915 -0.036499135 -0.061984546
0.05762772 0.10048841 0.09352422 0.001069056 -0.05612065 -0.06491586 0.04802535 -0.09255158
0.06778642 0.105600104 -0.16150837 -0.08527239 0.037423555 -0.09550612 0.04899062 0.0048516477

network_body._body_endoder.seq_layers.2.bias f4 [128]
00000000: 3e9c bdbb 5005 8fbb b8b3 6dbb bd54 1e3c
00000010: 6e16 acbb cba2 613c a521 0abb 2e61 313b
00000020: 6db0 933c 2183 3ebc 4d34 a93b 01e9 82bc
00000030: afc0 533c 6052 a53c e8be 4f3a 3ad1 3dbb
00000040: ffca c03c be80 853c 49d9 e23b 47cd 0a3c
00000050: 3a9c 473c f841 6bbc 5549 5a3c 5a07 8f3c
00000060: fbbc a7ba d503 a43c ca49 2abc 9bd2 4d3b
00000070: 0486 873c f441 12bb 5738 963c d261 d03b
00000080: e78a 5ebc fccd 0c3b a1b7 6b3c c60c e9ba
00000090: b0bf 023b 22de 4abb 61e1 703c 8b40 70bc
000000a0: eceb 633c 27a8 9d3c e3b0 34bc ef70 ae3a
000000b0: 680f ec3b a299 1dbc 084c 763c cee1 f8bb
000000c0: f3f0 a33c f68e 0e3c 28af 20bc 3ab3 2d3c
000000d0: 9334 da3a 204c 0c3b 2ec4 953c b8bd 1f3b
000000e0: ec25 933c 0b43 65bc 9b79 8d3c be60 64bc
000000f0: d40a bbbb 7733 d83b 4cad 5cbc 49c2 3bbc
00000100: 9c57 26bb 5af9 3fbc a57e 2abc 3994 8d3c
00000110: 8372 7f3c 4066 0d3a cf5b 7bbc 8b1b 8e3c
00000120: 3503 5ebc 06a6 6ebb 8034 90bb fef4 153c
00000130: 2604 983c f5bd 543c 57b0 c23b 349d 873a
00000140: 9193 223b f3bc 58bc 766b 233c fd57 4c3c
00000150: c4f3 dd3b 4132 5bbc 2ede 613c cd29 283c
00000160: 3512 823b ed4a 4c3c 299a a03c 3118 643c
00000170: bca2 66bb 976e 463c 9541 8cbc 4b3b 3b3b
00000180: 5efd 12bc a1ae 54bb fb58 223c 0af2 eeba
00000190: da4c d23b 4b45 cb3b 80cb c43b c90c a33b
000001a0: e3ac 8dbb 73c7 82bc b6b4 da3b e586 91bb
000001b0: 5a27 0abc 9d71 17bb 3cb9 8c3c b9d0 ff3b
000001c0: 198e 673c 237a 803c d89b 243c 6b7e 233c
000001d0: d1ad a03b 9301 4a3c fc9e 3ebc 7727 923c
000001e0: 0d47 103c fa9e a63b 7d90 863a 615c 65bc
000001f0: e9b5 32bc 5e87 d53b 6ce4 ab3b 935a 733b
-0.005786448 -0.004364647 -0.003627045 0.009663758 -0.0052516973 0.013771723 -0.0021077183 0.002706598
0.018028462 -0.011627943 0.0051637054 -0.015980246 0.012924357 0.020180881 0.00079248706 -0.002896382
0.023534296 0.01629674 0.006922875 0.0084717935 0.012183243 -0.01435899 0.013323148 0.01745956
-0.001279741 0.020021359 -0.010393569 0.0031406048 0.016543396 -0.0022317143 0.018337412 0.0063593173
-0.013582922 0.002148508 0.014387042 -0.0017780296 0.001995068 -0.0030955155 0.014702172 -0.014663826
0.013911229 0.01924522 -0.011028501 0.0013308803 0.007203985 -0.009619148 0.015032776 -0.0075952774
0.020012354 0.008701077 -0.0098073855 0.010601813 0.0016647748 0.0021407679 0.018282022 0.0024374556
0.017962418 -0.013993035 0.0172699 -0.013939081 -0.005708078 0.006597932 -0.013469052 -0.011459895
-0.002538181 -0.011717165 -0.010406171 0.017282592 0.015591267 0.00053939596 -0.015341713 0.017347118
-0.013550569 -0.0036414876 -0.0044007897 0.009152649 0.018556666 0.012984742 0.0059414315 0.0010346533
0.0024807195 -0.013228643 0.009974351 0.01247215 0.006773444 -0.013378681 0.013785882 0.010263872
0.0039694556 0.012469036 0.01960476 0.013921783 -0.0035192212 0.012111328 -0.017121116 0.0028569277
-0.00897154 -0.003245272 0.00990891 -0.0018230092 0.006417853 0.0062033287 0.0060057044 0.0049758893
-0.004323588 -0.015964245 0.0066743745 -0.0044411295 -0.008432234 -0.002310849 0.01717817 0.007806864
0.014133 0.01568324 0.010046922 0.009978871 0.004903533 0.012329477 -0.0116345845 0.017841084
0.008806002 0.0050848695 0.001026645 -0.013999076 -0.010907629 0.006516381 0.005245736 0.0037132844

action_model._discrete_distribution.branches.0.weight f4 [5, 128]
00000000: 0376 f23a 41f0 553c 5672 e43b 2e93 2dbc
00000010: e5a9 89bc 3fb0 3cbc aa02 0e3c 580c 3b3b
00000020: dd93 08bb 8c56 e4bb b72e 36bc 550f 403c
00000030: 37bd 243c b7cf 52bc 1af8 1b3c d9f1 3f3b
00000040: 5f88 eabb 5a28 56bc 4ac4 053c b4db 75bc
00000050: 6638 e9bc 3a47 c83a 980b 61bc 6221 ff3b
00000060: 9eb4 ceb9 3915 8fbb 16c3 223a d300 0c3a
00000070: 101c b03b 48c0 cf3b 534a d4b9 03c6 a23b
00000080: c22c 67bc d956 4b3c 8756 1cbb 98c3 14bc
00000090: b3f3 85bb 8acb ccb8 095e 9ebb cac2 823c
000000a0: a797 65bc 9f1b e3bb 49d3 62bb 2ebe f2bb
000000b0: bbf2 81bb fe35 453b f64d cbbb 5ce6 2a3c
000000c0: d4f9 0bbc debb 323c 5bf0 123b d0c7 a73c
000000d0: b123 8ebb c668 503c cfe8 973a 0f9a be3b
000000e0: e018 e1bb 2efd 763c d584 8cbc 1893 36bc
000000f0: a6a9 503c 4ab2 d6bb 53a3 b43c 370e 763c
00000100: adfe 5d3c 422a 023b 67a6 3b3c aa45 2bbc
00000110: 5819 573b a7f1 653c 563c 633c 7214 02bc
00000120: e998 0f3c f801 89bb f83f e4bb 8d43 15bc
00000130: 076b 21bc da36 20bc 5d7e 25bb da5f 77bc
00000140: 5cd3 b53c 5d2d 5a3c 6d21 f93a 2a94 873a
00000150: a498 03bc c88d e53c f7f4 953b 72d0 9c3a
00000160: d091 02bb 4974 36bc c0b8 733b b3ff 7abc
00000170: 65a4 403b 1848 b13b 4736 153c a2ac c63c
00000180: 5851 f63b b145 203c c1a1 16bc b893 4c3c
00000190: 5371 8bbc a193 413c 6e16 e9bc 1211 923b
000001a0: 07d3 07bc a0b9 063b b7ef 8fbc dab1 27bb
000001b0: 207e f8bb 9fd2 f63b 2d1f 0fbc 1c9a 183a
000001c0: 440b b7bc 2aaa 75ba 2d17 c5ba d833 c2bb
000001d0: b151 d6bb bf29 c3bc d0a9 9d3b b5f1 01bc
000001e0: dce1 34bc b334 debb c61e 133c 45c2 283c
000001f0: 572d 6a3b 0d7c 743c 08d3 34bc 0ec7 623c
00000200: 58e3 32bc 3dd5 18bc f0f1 07bc 13d7 873c
00000210: 407b 3abc cb44 2a3b 8b23 943b c7d5 483c
00000220: ab73 193c 83ad 3abc 4e4f 75bb c2a4 bdbc
00000230: 1af2 123b e688 61bc d3f0 d93b 6496 bdba
00000240: 3d16 8d3b 6baa 5abc 0ccf 843c 5d12 603b
00000250: f1f0 a3bb b775 b0bc 6831 3cbc cbc8 383c
00000260: ce5c 7dbc 9233 893c 354d 0fbc 279f 8639
00000270: 58a1 bbba 2128 5dbc 63f9 40bb 9122 e03a
00000280: a958 8ebc 4431 843b 1607 9d3c 0cf9 093b
00000290: 2176 fd3b b11e f6bb 0977 053c 7a48 87bc
000002a0: 255d ed3c c958 813b f7ef afbc 25ae b6bb
000002b0: 9e06 94bc 79e2 723b ef15 95bb cda9 fabb
000002c0: b963 f23a 4746 2a3c ac0f 6dbb d4a0 ab3c
000002d0: 835e 97bb 5c0c 5e3b 551b 123c 8d32 523c
000002e0: b8d7 5f3c b57f 03bd 898f 753c 2b68 6bbc
000002f0: 0c6b 62ba 1109 4e3b 5b39 34bc 29c8 1bbc
00000300: b8da ffbb dff3 c7bc cb2b 12bc ea19 073c
00000310: 3e04 713b 7c93 183c 784e 8cbc 32ef 9dba
00000320: 7116 f9bc 7135 0f3b 46d1 30bc 916d a7bb
00000330: 9021 533c 6a2d b33c 3ac2 ebbc da74 d13b
00000340: 692f 01bd 52b5 77bc dabb f43a 380a a23c
00000350: d318 54bc b2c7 0dbc a2ab a239 8967 393b
00000360: 00c6 80bc 3f28 b93b 7edd 2ab9 394d 293c
00000370: ab33 c8bc 91f4 673c 0de7 3bbc e45f 0a3c
00000380: bb9c a3bb 77d1 84bb 7efb 493c c28c a7bb
00000390: 53e1 12bb b203 20bc 6b7d 1fbb 9d61 7fbc
000003a0: 4ac0 23bc 9e20 aabc a2c6 073b d364 30ba
000003b0: 7832 a9bb 064f 033b 66de a43c 1428 2c3a
000003c0: 31c5 ec3b 0d9d de3c ef19 9539 6829 44bc
000003d0: 0147 4d3c 685b 2a3c bdd0 3abc 2f78 8f3b
000003e0: d56f 31bb 4914 cb39 3dcc 66bc 1636 45bc
000003f0: 45e3 2ebb a3ce 45bb 5bc8 b43b 767c 1e3c
0.0018498305 0.013057769 0.0069716377 -0.010594172 -0.016804645 -0.01151663 0.008667627 0.0028541293
-0.0020840087 -0.006968325 -0.011119536 0.011722405 0.010054878 -0.012866906 0.009519601 0.002928844
-0.00715737 -0.013071144 0.008164475 -0.015005995 -0.028469276 0.0015280016 -0.013735674 0.007785962
-0.00039425952 -0.0043665436 0.00062088796 0.0005340699 0.005374439 0.0063400604 -0.00040491167 0.0049674525
-0.014109792 0.012410843 -0.0023855285 -0.009079836 -0.004087889 -9.76539e-05 -0.004832987 0.015962023
-0.0140132075 -0.006930783 -0.00346108 -0.007407925 -0.0039657033 0.0030091996 -0.006204362 0.0104308985
-0.00854345 0.010909049 0.0022421095 0.02048102 -0.004337751 0.012720292 0.0011589768 0.005816705
-0.0068694204 0.015075011 -0.017153183 -0.011143468 0.01273576 -0.0065520154 0.022050535 0.0150180375
0.013549489 0.0019861613 0.011453248 -0.010453621 0.0032821503 0.014034665 0.013869366 -0.007939445
0.008764484 -0.004181143 -0.0069656335 -0.009110344 -0.009852177 -0.009778703 -0.002525232 -0.015098536
0.02219551 0.0133164795 0.0019007154 0.0010343839 -0.008031998 0.028021708 0.004576321 0.0011963977
-0.0019923337 -0.011136123 0.0037188977 -0.0153197525 0.0029394862 0.0054102056 0.009107179 0.02425224
0.007517021 0.009782241 -0.009193839 0.012486391 -0.01702181 0.011814983 -0.028453078 0.0044576013
-0.008290059 0.0020557418 -0.01757036 -0.0025588186 -0.0075833946 0.007532432 -0.00873546 0.0005821304
-0.022344239 -0.0009371365 -0.0015036814 -0.0059265904 -0.0065405 -0.023823617 0.004811503 -0.007931163
-0.011040177 -0.0067811846 0.008979505 0.010300224 0.003573259 0.014922154 -0.011036642 0.013841404
-0.010918461 -0.009328184 -0.0082974285 0.016582048 -0.011381924 0.0025980945 0.0045208386 0.012258
0.009365956 -0.0113939075 -0.0037431302 -0.023149852 0.0022422136 -0.013765549 0.006651023 -0.0014464376
0.0043056295 -0.013346295 0.016212009 0.0034190633 -0.0050030877 -0.021540506 -0.011486389 0.0112783415
-0.015464021 0.016748223 -0.008746435 0.0002567705 -0.0014315052 -0.013498337 -0.002944552 0.0017100145
-0.01737626 0.004034193 0.019168418 0.0021052985 0.0077350293 -0.007510983 0.008146056 -0.016514052
0.028975079 0.0039473516 -0.021476729 -0.005574959 -0.018069562 0.0037061258 -0.004549734 -0.0076496364
0.0018492854 0.010392732 -0.0036172671 0.020950712 -0.004619421 0.0033881878 0.008917649 0.012829435
0.013662271 -0.032104213 0.014987835 -0.014368097 -0.0008637167 0.003143851 -0.011000003 -0.009508171
-0.0078080557 -0.024408279 -0.008921574 0.0082459245 0.003677621 0.009312507 -0.01712726 -0.0012049435
-0.030406209 0.0021851922 -0.010792082 -0.005109497 0.01288642 0.021872241 -0.028779138 0.0063921036
-0.031539354 -0.015118914 0.0018671707 0.019780263 -0.012945372 -0.008653568 0.00031026924 0.0028290472
-0.015719414 0.0056505497 -0.00016294976 0.010333353 -0.0244387 0.01415743 -0.011468661 0.008445714
-0.004993049 -0.0040532905 0.012328027 -0.005113215 -0.0022412136 -0.009766506 -0.002433623 -0.015587238
-0.009994576 -0.020767506 0.002071776 -0.0006728891 -0.005163487 0.0020036115 0.02012558 0.00065672514
0.0072256555 0.027174497 0.00028438817 -0.011972763 0.012529136 0.0103977695 -0.011402306 0.0043783407
-0.0027074714 0.0003873429 -0.01408678 -0.012036821 -0.0026685756 -0.003018298 0.0055170483 0.0096732285

action_model._discrete_distribution.branches.0.bias f4 [5]
00000000: 6559 08bc 36ff 823c 86d2 933b 3cb6 04bc
00000010: a33c 00bc
-0.008322095 0.015990835 0.0045111803 -0.008100089 -0.007826957
