Turtle/results/turtle1/Turtle/Turtle-76841.pt (torch, 442840 bytes, 33 tensors)

network_body._body_endoder.seq_layers.0.weight f4 [128, 5]
0.52730334 0.15192221 -0.60625035 0.48174307 -0.28807572 -0.07627547 0.0510069 -0.19848849
-0.04035694 -0.04294247 -0.14021865 -0.19599675 0.41103178 -0.56465936 -0.53141755 0.21301763
0.13611372 -0.120596595 0.2562606 0.5162342 0.05692364 0.46568015 -1.1927751 0.7882571
0.29858226 -0.3407154 0.40276033 -1.0405744 -0.0029152038 0.18433703 0.38708225 -0.1985433
-0.27406606 0.8584682 0.6633768 -0.16130738 -0.36344883 0.23682493 -0.38769737 -0.8129055
-0.7269345 0.014377293 0.5368185 -0.16138305 0.59294635 0.2431032 -0.68265384 0.20294113
0.30625033 -0.001053849 0.41334033 -0.21383435 -0.47815257 0.14889768 -0.28994593 -0.020181742
-0.18318635 0.025632137 -0.13228683 0.26683262 0.076961145 0.5955837 -0.06810329 0.07669032
-0.50193304 0.41559196 0.5061865 0.29502708 0.42425582 -0.5848158 0.7731834 0.61870867
-0.12395609 -0.24888185 -0.94088566 0.6843255 -0.2779668 -0.68679285 -0.22456063 -0.24992168
-0.8346978 0.17822295 0.8709223 -0.15289469 0.2205969 0.41009915 -0.15445158 0.19968782
0.12960075 -0.21042782 0.97193575 0.28475988 -0.13486609 -0.104811855 -0.24392284 -0.42538762
0.23388098 -0.17988636 -0.1704009 -0.81323475 -0.923761 0.1794202 -0.97597086 0.1893339
-0.4760494 0.7993998 -1.2932355 0.055484153 -0.4474387 0.6119148 0.4231113 0.21825288
0.119137816 0.84268814 -0.33919528 -0.050135043 -1.0535378 -0.17658673 -0.7142682 -0.39908126
0.43195584 -0.15685178 0.065389946 0.26717034 -0.09992891 -0.5011884 -0.7527228 0.054220952
0.4188468 -0.69846046 0.24511756 0.27565423 -0.4113571 0.54557836 -0.013359995 0.2910583
0.030709071 -0.0103152245 -0.07888764 -0.30558613 0.2949806 -0.6209724 0.042845905 0.2977757
0.5910512 -0.5513633 0.0639973 1.0127676 0.23397666 0.45846665 -0.37599665 0.1289632
-0.83179754 0.2701492 -0.0075064464 0.0252236 -0.41232815 0.63042945 -0.057590324 -0.34992453
0.27538 0.83163387 0.6820457 0.13084269 0.79904383 0.3563714 -0.0004129655 0.33312982
0.21396555 0.18683143 0.36040446 1.2757175 0.96927613 -0.34660637 0.1575815 -0.30262846
-0.10668561 0.6521953 0.28814667 0.36199465 0.41873783 0.33613676 0.64159817 -0.30119306
-0.3896756 -0.35576412 -0.55537695 0.7278954 -0.27885607 -0.4738099 0.07123283 -0.7534426
0.17913677 -0.23721302 -0.084119156 0.011171867 -0.11033771 0.25123125 -0.49991938 0.011185243
0.46879038 0.07621027 0.56457704 0.22980288 -0.117438614 0.42742464 0.17513654 0.010768546
-0.16825357 0.6289896 0.23653367 0.41479874 0.16714491 -0.8145419 0.44839147 -0.30818728
0.2937622 0.386466 0.51025116 -0.65002143 -0.005174189 0.20622335 0.35600197 0.76586574
-0.41163316 -0.29466122 0.37452242 0.047447097 -0.3501268 -0.13652979 0.3531892 0.5293923
0.6629087 0.21716556 0.062147673 0.5102127 0.80667293 -0.22503917 -1.2971219 -0.98365563
-0.61739635 0.0152779 -0.061890073 -0.098388724 0.49505702 0.4520797 -0.18842053 0.6986289
0.15302902 -0.2797511 0.274524 0.55733335 0.11305816 -0.051673885 0.27727303 0.45818892
00000000: 5afd 063f 7f91 1b3e 3933 1bbf 07a7 f63e
00000010: a97e 93be 5036 9cbd 9cec 503d 9140 4bbe
00000020: 524d 25bd 72e4 2fbd 7a95 0fbe 5fb3 48be
00000030: c272 d23e 848d 10bf fb0a 08bf 4b21 5a3e
00000040: 6561 0b3e 59fb f6bd 9734 833e ed27 043f
00000050: c328 693d a16d ee3e dbac 98bf 38cb 493f
00000060: c6df 983e 4072 aebe 9a36 ce3e 8b31 85bf
00000070: 010d 3fbb d9c2 3c3e a52f c63e ef4e 4bbe
00000080: 6352 8cbe 92c4 5b3f 10d3 293f c32d 25be
00000090: f715 babe 3c82 723e 4580 c6be 931a 50bf
000000a0: 6118 3abf bd8e 6b3c f06c 093f 9941 25be
000000b0: 55cb 173f 0cf0 783e 67c2 2ebf cdcf 4f3e
000000c0: d8cc 9c3e 4e21 8aba 58a1 d33e 64f7 5abe
000000d0: 6ad0 f4be a278 183e cb73 94be 2e54 a5bc
000000e0: 3495 3bbe 7dfa d13c 3376 07be 499e 883e
000000f0: ce9d 9d3d 2c78 183f bd79 8bbd d10f 9d3d
00000100: af7e 00bf 78c8 d43e 7095 013f ca0d 973e
00000110: 0f38 d93e 7db6 15bf 59ef 453f b163 1e3f
00000120: b1dc fdbd e2da 7ebe e2dd 70bf f52f 2f3f
00000130: aa51 8ebe a8d1 2fbf 39f3 65be 78eb 7fbe
00000140: c1ae 55bf 1480 363e c4f4 5e3f 6d90 1cbe
00000150: 27e4 613e 84f8 d13e 8e28 1ebe f77a 4c3e
00000160: 0fb6 043e 647a 57be c8d0 783f 0ccc 913e
00000170: 561a 0abe 99a7 d6bd e9c6 79be 68cc d9be
00000180: 7f7e 6f3e 2134 38be 937d 2ebe 2730 50bf
00000190: 9a7b 6cbf eeb9 373e 3ad9 79bf bfe0 413e
000001a0: bfbc f3be 77a5 4c3f be88 a5bf 5a43 633d
000001b0: af16 e5be 73a6 1c3f 0ba2 d83e af7d 5f3e
000001c0: 87fe f33d 69ba 573f 01ab adbe 675a 4dbd
000001d0: 54da 86bf 27d3 34be 48da 36bf 6154 ccbe
000001e0: 5129 dd3e c19d 20be 2aeb 853d 8dca 883e
000001f0: 87a7 ccbd e24d 00bf 71b2 40bf ca16 5e3d
00000200: 1673 d63e 4ece 32bf 1900 7b3e 8d22 8d3e
00000210: 669d d2be 06ab 0b3f e1e3 5abc 9805 953e
00000220: 9791 fb3c 3001 29bc d88f a1bd c975 9cbe
00000230: b207 973e 0cf8 1ebf 307f 2f3d 0e76 983e
00000240: 224f 173f 2526 0dbf 0411 833d 5ea2 813f
00000250: 9497 6f3e 24bc ea3e a282 c0be ee0e 043e
00000260: aff0 54bf ff50 8a3e a3f8 f5bb b9a1 ce3c
00000270: ad1c d3be d363 213f d5e3 6bbd 4f29 b3be
00000280: 9bfe 8c3e f5e5 543f 8c9a 2e3f a0fb 053e
00000290: 238e 4c3f 5076 b63e 4b83 d8b9 fe8f aa3e
000002a0: c919 5b3e bd50 3f3e ef86 b83e b64a a33f
000002b0: 7b22 783f 6476 b1be 0b5d 213e 1ef2 9abe
000002c0: fc7d dabd 45f6 263f f687 933e 5d57 b93e
000002d0: ce64 d63e 1e1a ac3e c73f 243f fa35 9abe
000002e0: 8f83 c7be b726 b6be 2f2d 0ebf 5a57 3a3f
000002f0: 39c6 8ebe 3697 f2be 85e2 913d 9de1 40bf
00000300: a16f 373e f8e7 72be aa46 acbd 350a 373c
00000310: bdf8 e1bd 62a1 803e 6ff5 ffbe 4f42 373c
00000320: 4b05 f03e 2114 9c3d 1f88 103f 7251 6b3e
00000330: a883 f0bd 67d7 da3e fe56 333e 8e6e 303c
00000340: aa4a 2cbe 7605 213f e235 723e 8060 d43e
00000350: 0928 2b3e d185 50bf 9193 e53e b9ca 9dbe
00000360: 0068 963e dfde c53e d29f 023f ce67 26bf
00000370: 3e8c a9bb 372c 533e e445 b63e c70f 443f
00000380: 95c1 d2be d6dd 96be 67c1 bf3e e357 423d
00000390: d243 b3be 77ce 0bbe 37d5 b43e 4186 073f
000003a0: 62b4 293f a660 5e3e 8f8e 7e3d 4d9d 023f
000003b0: 1e82 4e3f ab70 66be 1708 a6bf dbd0 7bbf
000003c0: b00d 1ebf 2850 7a3c 7280 7dbd 0780 c9bd
000003d0: 1d78 fd3e fe76 e73e 50f1 40be 58d9 323f
000003e0: a4b3 1c3e 893b 8fbe 698e 8c3e 66ad 0e3f
000003f0: 098b e73d ffa7 53bd bbf6 8d3e bd97 ea3e

network_body._body_endoder.seq_layers.0.bias f4 [128]
0.012653778 -0.0027393661 0.016074244 -0.0020505507 -0.01326766 0.0010520709 -0.01386521 0.018688392
-0.0038195213 -0.02249804 0.015444878 -0.0046824906 -0.009238017 0.019853456 0.016437119 0.005146935
0.005788128 0.0008643733 0.015106558 0.008076311 -0.0053431555 0.0059980843 0.014745048 -0.014755812
0.0042935275 0.01761406 -0.013653536 0.017846528 -0.002981879 0.022056295 -0.011101261 0.014348445
0.017324597 -0.0004308014 0.017626533 0.023359489 0.017014854 -0.00044545016 -0.003239 0.011492321
0.010783995 0.015484767 -0.01257819 0.017193194 0.000829573 0.00581745 0.016877543 0.007363554
-0.010828913 0.00677549 0.004090918 -0.0004963498 -0.00021431409 0.007097573 0.00964595 0.010826908
0.01778593 -0.003191524 0.009136095 0.008798894 0.009309472 0.0146926185 0.025226654 0.0055071805
-0.005839425 0.0038013854 0.0049467054 0.020266423 0.0011080151 0.020234236 0.010102498 0.00591308
0.015448672 -0.0015148898 0.017125763 0.020860603 -0.0055576167 -0.006868291 -0.010797878 0.005476325
0.008314785 -0.002691562 0.017711401 0.018908722 -0.005069783 0.0015557869 0.019502599 -0.0044724885
-0.003354864 0.018672183 0.014649505 -0.020889027 0.015274047 -0.014188715 0.015788939 0.00565264
-0.0116942935 -0.013604643 -0.01657368 0.015100537 0.02341114 0.019803476 0.014222397 0.0015226244
0.009601633 0.019749248 0.004292459 -0.010874902 0.00061522424 0.006256992 0.00951463 0.018215582
0.019331288 0.0118090585 0.004969319 0.02058447 0.0054153097 0.015990544 -0.01103592 -0.008070712
-0.0007833739 0.011171846 -0.0023192149 -0.019151432 0.01706225 -0.008990153 0.010624365 -0.00846494
00000000: cb51 4f3c f086 33bb 22ae 833c 8862 06bb
00000010: 9960 59bc a4e5 893a e82a 63bc 6618 993c
00000020: ef50 7abb cf4d b8bc 830c 7d3c 946f 99bb
00000030: 0d5b 17bc b7a3 a23c 23a7 863c 9fa7 a83b
00000040: 56aa bd3b 1c97 623a 7f81 773c 8152 043c
00000050: a315 afbb 948b c43b 3795 713c 5cc2 71bc
00000060: b8b0 8c3b 5c4b 903c 15b3 5fbc e232 923c
00000070: a16b 43bb 67af b43c 10e2 35bc be15 6b3c
00000080: 50ec 8d3c 2fdd e1b9 8565 903c 665c bf3c
00000090: bc62 8b3c 4f8b e9b9 6745 54bb 4a4a 3c3c
000000a0: 5aaf 303c d2b3 7d3c c114 4ebc bed8 8c3c
000000b0: b477 593a 4fa0 be3b c642 8a3c f849 f13b
000000c0: c16b 31bc ee04 de3b 1c0d 863b 791d 02ba
000000d0: 80b9 60b9 c292 e83b 0c0a 1e3c 5863 313c
000000e0: ccb3 913c e328 51bb 8faf 153c 3c29 103c
000000f0: c186 183c 4fb9 703c 21a8 ce3c 9475 b43b
00000100: a658 bfbb aa20 793b f917 a23b c505 a63c
00000110: d13a 913a 45c2 a53c f384 253c 83c2 c13b
00000120: 6d1c 7d3c 448f c6ba 544b 8c3c dbe3 aa3c
00000130: ab1c b6bb 670f e1bb 95e9 30bc be72 b33b
00000140: bc3a 083c eb64 30bb 8017 913c 77e6 9a3c
00000150: 6c20 a6bb 8ceb cb3a eac3 9f3c f48d 92bb
00000160: 47dd 5bbb 68f6 983c 7a04 703c 771f abbc
00000170: ff3f 7a3c c977 68bc ce57 813c c839 b93b
00000180: 6c99 3fbc 02e6 5ebc 87c5 87bc 3e68 773c
00000190: b8c8 bf3c e63a a23c 0e05 693c cc92 c73a
000001a0: 2b50 1d3c 2dc9 a13c c2a7 8c3b a52c 32bc
000001b0: 0047 213a 7407 cd3b 40e3 1b3c d838 953c
000001c0: a65c 9e3c c87a 413c abd5 a23b c3a0 a83c
000001d0: e972 b13b 9afe 823c 01d0 34bc 053b 04bc
000001e0: 555b 4dba 1e0a 373c f8fd 17bb 77e3 9cbc
000001f0: 22c6 8b3c 6f4b 13bc d111 2e3c 88b0 0abc

network_body._body_endoder.seq_layers.2.weight f4 [128, 128]
-0.08935722 -0.027400883 -0.016810019 0.09960214 0.04660606 0.067729846 -0.025997065 -0.059865337
-0.0816582 0.026906312 0.11940985 0.026887067 -0.01612085 -0.019172095 -0.008992558 -0.026315521
-0.047329504 0.046716034 0.045391183 0.027143788 0.03293273 0.07276685 -0.0126395505 -0.02791485
0.015897652 0.09113616 0.14746508 -0.0014722885 0.066149585 0.034941126 -0.010251304 -0.052035782
0.04948116 -0.04768674 0.052895084 -0.0095567955 -0.023846673 -0.15272687 0.005432417 0.1055916
0.028955936 -0.046746712 0.010062185 0.23558703 0.055906728 0.0052958233 -0.05360838 0.09312697
-0.049419556 -0.09538916 -0.14319263 -0.06829523 -0.04862062 0.100096025 -0.047725145 0.15691535
-0.08280338 0.019859876 0.065926805 0.24603154 0.21301304 -0.111740224 0.063219324 -0.14421664
-0.01527563 -0.055254955 0.069013014 0.0808719 -0.13085216 -0.074869566 -0.019292144 -0.122270964
0.062230945 -0.016858624 0.1553891 -0.20908101 0.1470061 0.10087713 0.17138441 -0.22562514
0.14688419 0.0659439 -0.06540698 0.01927848 -0.104384705 0.012284227 -0.010199127 -0.08123011
0.030528538 0.03181938 0.12664984 -0.004657827 -0.03968764 0.093013085 0.04628451 -0.027160326
0.013328513 -0.0005339334 -0.0058406773 -0.013592163 -0.038257986 0.09689155 0.07031473 0.18498898
0.06771307 0.032293506 -0.09901558 -0.030581946 -0.11147506 -0.0815198 -0.107806586 -0.07015907
0.097514406 0.0020154798 -0.14815626 0.09183478 0.06617798 -0.10073557 0.09048249 0.031824127
0.043520898 -0.06114888 -0.15908873 0.15723313 -0.036683414 -0.17204405 -0.14559829 -0.06890319
-0.10799735 -0.012228963 -0.0017818147 -0.102475084 0.022292858 0.058612637 -0.018802397 -0.025653226
0.107398644 -0.003322176 -0.020279575 0.09338357 0.13786267 0.06500601 -0.049919926 0.10861651
0.058767773 -0.012161831 0.15121406 -0.1448484 0.15602973 0.09970826 0.095710374 -0.13446963
0.052994493 -0.15752473 -0.005222783 0.098191924 0.07240894 0.00767079 -0.109415494 0.1413086
0.024833785 0.016993178 -0.07110418 0.19554436 0.051348403 -0.12208496 0.1970792 0.12483761
0.10500708 -0.0012819055 0.13664666 -0.12371594 0.03131042 0.078504875 0.029307147 -0.14730118
0.03214372 -0.009065653 -0.022381201 0.0766243 -0.0790602 0.048097186 -0.025908887 0.09509293
-0.12361757 0.08236346 0.094396636 -0.03470207 -0.043801952 -0.033293612 -0.03707271 -0.01022189
-0.059848946 -0.01541599 -0.030085394 0.024097558 -0.054311182 -0.061238647 -0.09833287 0.06830396
0.1208212 0.05437915 -0.009003066 -0.08105233 0.047670882 -0.018244864 -0.06486126 -0.026532074
0.025505077 0.0015220483 0.090850785 0.1924472 0.020022562 -0.15004358 -0.034083627 0.06752723
0.052653182 0.01813464 0.013385803 -0.06641171 -0.057163972 0.010355583 0.09437719 0.06316464
0.086378396 0.129087 0.028313449 0.096138455 0.09657402 -0.036629666 -0.049693037 -0.12315129
0.10728467 0.096544206 -0.027200885 0.018676298 0.05808081 0.03389915 -0.036499135 -0.061984546
0.05762772 0.10048841 0.09352422 0.001069056 -0.05612065 -0.06491586 0.04802535 -0.09255158
0.06778642 0.105600104 -0.16150837 -0.08527239 0.037423555 -0.09550612 0.04899062 0.0048516477
00000000: eb00 b7bd d177 e0bc 2ab5 89bc 35fc cb3d
00000010: ffe5 3e3d f2b5 8a3d ccf7 d4bc 5b35 75bd
00000020: 6a3c a7bd a06a dc3c 278d f43d 4442 dc3c
00000030: df0f 84bc cc0e 9dbc 8655 13bc a693 d7bc
00000040: 95dc 41bd 5059 3f3d 1bec 393d a65c de3c
00000050: 78e4 063d c906 953d 1e16 4fbc afad e4bc
00000060: cb3b 823c 98a5 ba3d 1601 173e cef9 c0ba
00000070: 6f79 873d 6d1e 0f3d 16f5 27bc 7923 55bd
00000080: c2ac 4a3d 2c53 43bd 84a8 583d 1b94 1cbc
00000090: 195a c3bc 6f64 1cbe 6b02 b23b 6940 d83d
000000a0: 0035 ed3c 7b79 3fbd dddb 243c ba3d 713e
000000b0: 74fe 643d 9688 ad3b 7694 5bbd 5ab9 be3d
000000c0: 296c 4abd 645b c3bd 17a1 12be 5fde 8bbd
000000d0: 6a26 47bd 25ff cc3d 717b 43bd 6bae 203e
000000e0: d294 a9bd 2eb1 a23c a204 873d b1ef 7b3e
000000f0: 1720 5a3e 0fd8 e4bd 2279 813d 87ad 13be
00000100: a346 7abc 0553 62bd b256 8d3d 2ba0 a53d
00000110: 1cfe 05be 3755 99bd 8f0a 9ebc 3369 fabd
00000120: e0e5 7e3d 191b 8abc 521e 1f3e 5519 56be
00000130: c488 163e ab98 ce3d 657f 2f3e 470a 67be
00000140: cf68 163e 980d 873d 18f4 85bd e7ed 9d3c
00000150: a6c7 d5bd c843 493c 3d1a 27bc f95b a6bd
00000160: fc16 fa3c 0a55 023d 7fb0 013e afa0 98bb
00000170: 828f 22bd a57d be3d d494 3d3d 557f debc
00000180: d65f 5a3c aaf7 0bba 2763 bfbb aab1 5ebc
00000190: 68b4 1cbd 146f c63d 2b01 903d c06d 3d3e
000001a0: 26ad 8a3d 3246 043d aec8 cabd fd86 fabc
000001b0: 094d e4bd daf3 a6bd b3c9 dcbd 8faf 8fbd
000001c0: a2b5 c73d 2416 043b 46b6 17be e013 bc3d
000001d0: 5288 873d 734e cebd e24e b93d 045a 023d
000001e0: f842 323d 3f77 7abd 28e8 22be b901 213e
000001f0: 5941 16bd 512c 30be b817 15be 1e1d 8dbd
00000200: b72d ddbd fd5b 48bc c88b e9ba 75de d1bd
00000210: 839f b63c ce13 703d 7c07 9abc b726 d2bc
00000220: d2f3 db3d ddb8 59bb 5a21 a6bc e33f bf3d
00000230: df2b 0d3e df21 853d d678 4cbd 5572 de3d
00000240: 7ab6 703d 6b42 47bc dcd7 1a3e 2453 14be
00000250: 42c6 1f3e d833 cc3d cd03 c43d 68b2 09be
00000260: c110 593d 2a4e 21be e123 abbb d918 c93d
00000270: 234b 943d 405b fb3b 3b15 e0bd 34b3 103e
00000280: 3970 cb3c 4735 8b3c 119f 91bd c83c 483e
00000290: b452 523d ae07 fabd 21cf 493e dcaa ff3d
000002a0: f40d d73d 9c05 a8ba 1aed 0b3e c85e fdbd
000002b0: 5b3f 003d 2ac7 a03d 8b15 f03c 1fd6 16be
000002c0: 22a9 033d 1b88 14bc c858 b7bc 33ed 9c3d
000002d0: 50ea a1bd 8e01 453d e03e d4bc 15c0 c23d
000002e0: 352b fdbd 2cae a83d 0653 c13d c223 0ebd
000002f0: ad69 33bd e25e 08bd 8ed9 17bd b779 27bc
00000300: 2b24 75bd 5993 7cbc a575 f6bc 3e68 c53c
00000310: 6775 5ebd 60d5 7abd be62 c9bd f2e2 8b3d
00000320: 1b71 f73d acbc 5e3d 9981 13bc c4fe a5bd
00000330: 8b42 433d 4176 95bc fbd5 84bd cb59 d9bc
00000340: 06f0 d03c 777f c73a fa0f ba3d e110 453e
00000350: 5b06 a43c 06a5 19be 469b 0bbd b74b 8a3d
00000360: ddaa 573d 198f 943c 2150 5b3c dd02 88bd
00000370: c524 6abd 77aa 293c d448 c13d 765c 813d
00000380: 28e7 b03d 622f 043e 9bf1 e73c 3de4 c43d
00000390: 9ac8 c53d fd08 16bd ed8a 4bbd be36 fcbd
000003a0: 11b8 db3d f8b8 c53d 64d4 debc 09ff 983c
000003b0: 25e6 6d3d d6d9 0a3d 1e80 15bd 82e3 7dbd
000003c0: 0b0b 6c3d decc cd3d a089 bf3d 911f 8c3a
000003d0: c4de 65bd 9bf2 84bd 3bb6 443d af8b bdbd
000003e0: 9bd3 8a3d de44 d83d 7362 25be 4aa3 aebd
000003f0: 7149 193d b698 c3bd 63aa 483d 92fa 9e3b

network_body._body_endoder.seq_layers.2.bias f4 [128]
-0.005786448 -0.004364647 -0.003627045 0.009663758 -0.0052516973 0.013771723 -0.0021077183 0.002706598
0.018028462 -0.011627943 0.0051637054 -0.015980246 0.012924357 0.020180881 0.00079248706 -0.002896382
0.023534296 0.01629674 0.006922875 0.0084717935 0.012183243 -0.01435899 0.013323148 0.01745956
-0.001279741 0.020021359 -0.010393569 0.0031406048 0.016543396 -0.0022317143 0.018337412 0.0063593173
-0.013582922 0.002148508 0.014387042 -0.0017780296 0.001995068 -0.0030955155 0.014702172 -0.014663826
0.013911229 0.01924522 -0.011028501 0.0013308803 0.007203985 -0.009619148 0.015032776 -0.0075952774
0.020012354 0.008701077 -0.0098073855 0.010601813 0.0016647748 0.0021407679 0.018282022 0.0024374556
0.017962418 -0.013993035 0.0172699 -0.013939081 -0.005708078 0.006597932 -0.013469052 -0.011459895
-0.002538181 -0.011717165 -0.010406171 0.017282592 0.015591267 0.00053939596 -0.015341713 0.017347118
-0.013550569 -0.0036414876 -0.0044007897 0.009152649 0.018556666 0.012984742 0.0059414315 0.0010346533
0.0024807195 -0.013228643 0.009974351 0.01247215 0.006773444 -0.013378681 0.013785882 0.010263872
0.0039694556 0.012469036 0.01960476 0.013921783 -0.0035192212 0.012111328 -0.017121116 0.0028569277
-0.00897154 -0.003245272 0.00990891 -0.0018230092 0.006417853 0.0062033287 0.0060057044 0.0049758893
-0.004323588 -0.015964245 0.0066743745 -0.0044411295 -0.008432234 -0.002310849 0.01717817 0.007806864
0.014133 0.01568324 0.010046922 0.009978871 0.004903533 0.012329477 -0.0116345845 0.017841084
0.008806002 0.0050848695 0.001026645 -0.013999076 -0.010907629 0.006516381 0.005245736 0.0037132844
00000000: 3e9c bdbb 5005 8fbb b8b3 6dbb bd54 1e3c
00000010: 6e16 acbb cba2 613c a521 0abb 2e61 313b
00000020: 6db0 933c 2183 3ebc 4d34 a93b 01e9 82bc
00000030: afc0 533c 6052 a53c e8be 4f3a 3ad1 3dbb
00000040: ffca c03c be80 853c 49d9 e23b 47cd 0a3c
00000050: 3a9c 473c f841 6bbc 5549 5a3c 5a07 8f3c
00000060: fbbc a7ba d503 a43c ca49 2abc 9bd2 4d3b
00000070: 0486 873c f441 12bb 5738 963c d261 d03b
00000080: e78a 5ebc fccd 0c3b a1b7 6b3c c60c e9ba
00000090: b0bf 023b 22de 4abb 61e1 703c 8b40 70bc
000000a0: eceb 633c 27a8 9d3c e3b0 34bc ef70 ae3a
000000b0: 680f ec3b a299 1dbc 084c 763c cee1 f8bb
000000c0: f3f0 a33c f68e 0e3c 28af 20bc 3ab3 2d3c
000000d0: 9334 da3a 204c 0c3b 2ec4 953c b8bd 1f3b
000000e0: ec25 933c 0b43 65bc 9b79 8d3c be60 64bc
000000f0: d40a bbbb 7733 d83b 4cad 5cbc 49c2 3bbc
00000100: 9c57 26bb 5af9 3fbc a57e 2abc 3994 8d3c
00000110: 8372 7f3c 4066 0d3a cf5b 7bbc 8b1b 8e3c
00000120: 3503 5ebc 06a6 6ebb 8034 90bb fef4 153c
00000130: 2604 983c f5bd 543c 57b0 c23b 349d 873a
00000140: 9193 223b f3bc 58bc 766b 233c fd57 4c3c
00000150: c4f3 dd3b 4132 5bbc 2ede 613c cd29 283c
00000160: 3512 823b ed4a 4c3c 299a a03c 3118 643c
00000170: bca2 66bb 976e 463c 9541 8cbc 4b3b 3b3b
00000180: 5efd 12bc a1ae 54bb fb58 223c 0af2 eeba
00000190: da4c d23b 4b45 cb3b 80cb c43b c90c a33b
000001a0: e3ac 8dbb 73c7 82bc b6b4 da3b e586 91bb
000001b0: 5a27 0abc 9d71 17bb 3cb9 8c3c b9d0 ff3b
000001c0: 198e 673c 237a 803c d89b 243c 6b7e 233c
000001d0: d1ad a03b 9301 4a3c fc9e 3ebc 7727 923c
000001e0: 0d47 103c fa9e a63b 7d90 863a 615c 65bc
000001f0: e9b5 32bc 5e87 d53b 6ce4 ab3b 935a 733b

action_model._discrete_distribution.branches.0.weight f4 [5, 128]
0.0018498305 0.013057769 0.0069716377 -0.010594172 -0.016804645 -0.01151663 0.008667627 0.0028541293
-0.0020840087 -0.006968325 -0.011119536 0.011722405 0.010054878 -0.012866906 0.009519601 0.002928844
-0.00715737 -0.013071144 0.008164475 -0.015005995 -0.028469276 0.0015280016 -0.013735674 0.007785962
-0.00039425952 -0.0043665436 0.00062088796 0.0005340699 0.005374439 0.0063400604 -0.00040491167 0.0049674525
-0.014109792 0.012410843 -0.0023855285 -0.009079836 -0.004087889 -9.76539e-05 -0.004832987 0.015962023
-0.0140132075 -0.006930783 -0.00346108 -0.007407925 -0.0039657033 0.0030091996 -0.006204362 0.0104308985
-0.00854345 0.010909049 0.0022421095 0.02048102 -0.004337751 0.012720292 0.0011589768 0.005816705
-0.0068694204 0.015075011 -0.017153183 -0.011143468 0.01273576 -0.0065520154 0.022050535 0.0150180375
0.013549489 0.0019861613 0.011453248 -0.010453621 0.0032821503 0.014034665 0.013869366 -0.007939445
0.008764484 -0.004181143 -0.0069656335 -0.009110344 -0.009852177 -0.009778703 -0.002525232 -0.015098536
0.02219551 0.0133164795 0.0019007154 0.0010343839 -0.008031998 0.028021708 0.004576321 0.0011963977
-0.0019923337 -0.011136123 0.0037188977 -0.0153197525 0.0029394862 0.0054102056 0.009107179 0.02425224
0.007517021 0.009782241 -0.009193839 0.012486391 -0.01702181 0.011814983 -0.028453078 0.0044576013
-0.008290059 0.0020557418 -0.01757036 -0.0025588186 -0.0075833946 0.007532432 -0.00873546 0.0005821304
-0.022344239 -0.0009371365 -0.0015036814 -0.0059265904 -0.0065405 -0.023823617 0.004811503 -0.007931163
-0.011040177 -0.0067811846 0.008979505 0.010300224 0.003573259 0.014922154 -0.011036642 0.013841404
-0.010918461 -0.009328184 -0.0082974285 0.016582048 -0.011381924 0.0025980945 0.0045208386 0.012258
0.009365956 -0.0113939075 -0.0037431302 -0.023149852 0.0022422136 -0.013765549 0.006651023 -0.0014464376
0.0043056295 -0.013346295 0.016212009 0.0034190633 -0.0050030877 -0.021540506 -0.011486389 0.0112783415
-0.015464021 0.016748223 -0.008746435 0.0002567705 -0.0014315052 -0.013498337 -0.002944552 0.0017100145
-0.01737626 0.004034193 0.019168418 0.0021052985 0.0077350293 -0.007510983 0.008146056 -0.016514052
0.028975079 0.0039473516 -0.021476729 -0.005574959 -0.018069562 0.0037061258 -0.004549734 -0.0076496364
0.0018492854 0.010392732 -0.0036172671 0.020950712 -0.004619421 0.0033881878 0.008917649 0.012829435
0.013662271 -0.032104213 0.014987835 -0.014368097 -0.0008637167 0.003143851 -0.011000003 -0.009508171
-0.0078080557 -0.024408279 -0.008921574 0.0082459245 0.003677621 0.009312507 -0.01712726 -0.0012049435
-0.030406209 0.0021851922 -0.010792082 -0.005109497 0.01288642 0.021872241 -0.028779138 0.0063921036
-0.031539354 -0.015118914 0.0018671707 0.019780263 -0.012945372 -0.008653568 0.00031026924 0.0028290472
-0.015719414 0.0056505497 -0.00016294976 0.010333353 -0.0244387 0.01415743 -0.011468661 0.008445714
-0.004993049 -0.0040532905 0.012328027 -0.005113215 -0.0022412136 -0.009766506 -0.002433623 -0.015587238
-0.009994576 -0.020767506 0.002071776 -0.0006728891 -0.005163487 0.0020036115 0.02012558 0.00065672514
0.0072256555 0.027174497 0.00028438817 -0.011972763 0.012529136 0.0103977695 -0.011402306 0.0043783407
-0.0027074714 0.0003873429 -0.01408678 -0.012036821 -0.0026685756 -0.003018298 0.0055170483 0.0096732285
00000000: 0376 f23a 41f0 553c 5672 e43b 2e93 2dbc
00000010: e5a9 89bc 3fb0 3cbc aa02 0e3c 580c 3b3b
00000020: dd93 08bb 8c56 e4bb b72e 36bc 550f 403c
00000030: 37bd 243c b7cf 52bc 1af8 1b3c d9f1 3f3b
00000040: 5f88 eabb 5a28 56bc 4ac4 053c b4db 75bc
00000050: 6638 e9bc 3a47 c83a 980b 61bc 6221 ff3b
00000060: 9eb4 ceb9 3915 8fbb 16c3 223a d300 0c3a
00000070: 101c b03b 48c0 cf3b 534a d4b9 03c6 a23b
00000080: c22c 67bc d956 4b3c 8756 1cbb 98c3 14bc
00000090: b3f3 85bb 8acb ccb8 095e 9ebb cac2 823c
000000a0: a797 65bc 9f1b e3bb 49d3 62bb 2ebe f2bb
000000b0: bbf2 81bb fe35 453b f64d cbbb 5ce6 2a3c
000000c0: d4f9 0bbc debb 323c 5bf0 123b d0c7 a73c
000000d0: b123 8ebb c668 503c cfe8 973a 0f9a be3b
000000e0: e018 e1bb 2efd 763c d584 8cbc 1893 36bc
000000f0: a6a9 503c 4ab2 d6bb 53a3 b43c 370e 763c
00000100: adfe 5d3c 422a 023b 67a6 3b3c aa45 2bbc
00000110: 5819 573b a7f1 653c 563c 633c 7214 02bc
00000120: e998 0f3c f801 89bb f83f e4bb 8d43 15bc
00000130: 076b 21bc da36 20bc 5d7e 25bb da5f 77bc
00000140: 5cd3 b53c 5d2d 5a3c 6d21 f93a 2a94 873a
00000150: a498 03bc c88d e53c f7f4 953b 72d0 9c3a
00000160: d091 02bb 4974 36bc c0b8 733b b3ff 7abc
00000170: 65a4 403b 1848 b13b 4736 153c a2ac c63c
00000180: 5851 f63b b145 203c c1a1 16bc b893 4c3c
00000190: 5371 8bbc a193 413c 6e16 e9bc 1211 923b
000001a0: 07d3 07bc a0b9 063b b7ef 8fbc dab1 27bb
000001b0: 207e f8bb 9fd2 f63b 2d1f 0fbc 1c9a 183a
000001c0: 440b b7bc 2aaa 75ba 2d17 c5ba d833 c2bb
000001d0: b151 d6bb bf29 c3bc d0a9 9d3b b5f1 01bc
000001e0: dce1 34bc b334 debb c61e 133c 45c2 283c
000001f0: 572d 6a3b 0d7c 743c 08d3 34bc 0ec7 623c
00000200: 58e3 32bc 3dd5 18bc f0f1 07bc 13d7 873c
00000210: 407b 3abc cb44 2a3b 8b23 943b c7d5 483c
00000220: ab73 193c 83ad 3abc 4e4f 75bb c2a4 bdbc
00000230: 1af2 123b e688 61bc d3f0 d93b 6496 bdba
00000240: 3d16 8d3b 6baa 5abc 0ccf 843c 5d12 603b
00000250: f1f0 a3bb b775 b0bc 6831 3cbc cbc8 383c
00000260: ce5c 7dbc 9233 893c 354d 0fbc 279f 8639
00000270: 58a1 bbba 2128 5dbc 63f9 40bb 9122 e03a
00000280: a958 8ebc 4431 843b 1607 9d3c 0cf9 093b
00000290: 2176 fd3b b11e f6bb 0977 053c 7a48 87bc
000002a0: 255d ed3c c958 813b f7ef afbc 25ae b6bb
000002b0: 9e06 94bc 79e2 723b ef15 95bb cda9 fabb
000002c0: b963 f23a 4746 2a3c ac0f 6dbb d4a0 ab3c
000002d0: 835e 97bb 5c0c 5e3b 551b 123c 8d32 523c
000002e0: b8d7 5f3c b57f 03bd 898f 753c 2b68 6bbc
000002f0: 0c6b 62ba 1109 4e3b 5b39 34bc 29c8 1bbc
00000300: b8da ffbb dff3 c7bc cb2b 12bc ea19 073c
00000310: 3e04 713b 7c93 183c 784e 8cbc 32ef 9dba
00000320: 7116 f9bc 7135 0f3b 46d1 30bc 916d a7bb
00000330: 9021 533c 6a2d b33c 3ac2 ebbc da74 d13b
00000340: 692f 01bd 52b5 77bc dabb f43a 380a a23c
00000350: d318 54bc b2c7 0dbc a2ab a239 8967 393b
00000360: 00c6 80bc 3f28 b93b 7edd 2ab9 394d 293c
00000370: ab33 c8bc 91f4 673c 0de7 3bbc e45f 0a3c
00000380: bb9c a3bb 77d1 84bb 7efb 493c c28c a7bb
00000390: 53e1 12bb b203 20bc 6b7d 1fbb 9d61 7fbc
000003a0: 4ac0 23bc 9e20 aabc a2c6 073b d364 30ba
000003b0: 7832 a9bb 064f 033b 66de a43c 1428 2c3a
000003c0: 31c5 ec3b 0d9d de3c ef19 9539 6829 44bc
000003d0: 0147 4d3c 685b 2a3c bdd0 3abc 2f78 8f3b
000003e0: d56f 31bb 4914 cb39 3dcc 66bc 1636 45bc
000003f0: 45e3 2ebb a3ce 45bb 5bc8 b43b 767c 1e3c

action_model._discrete_distribution.branches.0.bias f4 [5]
-0.008322095 0.015990835 0.0045111803 -0.008100089 -0.007826957
00000000: 6559 08bc 36ff 823c 86d2 933b 3cb6 04bc
00000010: a33c 00bc

exp_avg f4 [128, 5]
-9.1276e-06 2.9779515e-06 -3.8860135e-06 -6.34549e-06 1.9528898e-05 -1.5975516e-05 -7.890359e-06 1.40702505e-05
-1.578579e-05 2.38355e-05 -1.6954828e-05 1.5548718e-05 2.8892493e-06 -2.4935482e-05 3.0406234e-05 3.7683792e-05
-5.4837387e-06 -6.167735e-06 2.7982454e-05 -2.6356462e-05 1.0839794e-05 -9.951899e-06 3.568829e-05 -6.8078793e-06
2.0861447e-05 -1.1452149e-05 -4.4876665e-06 2.0350266e-05 8.714855e-06 2.7558295e-05 2.5040757e-05 2.509012e-06
1.1454091e-06 8.580013e-06 3.787572e-06 -1.10976525e-05 3.764773e-05 -7.45583e-06 -2.4877725e-05 2.0016509e-05
3.303358e-05 2.9975474e-06 -3.2336327e-05 6.20895e-05 -6.506405e-05 -1.0588211e-05 -3.1398583e-06 5.6639474e-06
-7.778351e-07 1.3666395e-05 -1.4421822e-05 -7.930138e-06 -1.7994005e-05 -1.3414898e-05 2.7054493e-05 1.2707818e-05
2.8413262e-06 -7.2706785e-06 1.2439374e-05 -1.2886507e-05 -9.439208e-06 1.5295103e-05 -1.772405e-06 1.00068855e-05
-1.1810221e-06 1.2011949e-06 1.7710212e-05 -3.9620086e-06 -1.31567795e-05 -1.8866695e-05 -2.7245818e-05 2.2469647e-05
-1.3889968e-05 -2.6129366e-05 7.852317e-05 -2.369747e-05 -9.995094e-06 -3.046154e-06 4.8410743e-06 4.124863e-05
5.0664046e-05 6.7212995e-06 -5.4672953e-05 0.00010089207 -0.00014882497 4.9952337e-06 9.30518e-06 -1.608667e-05
1.0035882e-05 -4.144773e-06 -1.4719759e-05 1.4547615e-05 -1.6575828e-05 -9.502793e-06 9.30668e-06 -1.3740246e-05
4.683507e-05 -1.2145713e-05 1.0950662e-05 -3.671963e-05 -2.3130238e-05 8.622483e-06 4.7708327e-06 1.3290226e-05
2.5220837e-05 2.2625247e-05 1.3309491e-05 -4.3042328e-05 3.5414727e-05 -2.8020337e-05 -7.778371e-06 4.449881e-05
-4.25514e-06 -1.2007066e-06 -8.9095665e-06 -2.0123673e-05 -2.691581e-07 1.0843329e-05 -2.0916973e-06 3.0721058e-05
-8.6427457e-07 2.9419565e-05 -1.3568431e-05 8.317066e-06 -4.8546903e-05 -1.2930087e-05 4.0283765e-05 -1.5328844e-05
7.275394e-06 -1.1883489e-05 -7.894405e-06 -8.074651e-06 9.881331e-06 -1.8671525e-06 1.5112351e-05 -8.214395e-06
4.117474e-07 -6.952962e-06 -1.5611782e-05 1.6895254e-05 2.5148234e-05 6.410398e-06 -1.4721591e-05 3.316819e-05
-3.1349988e-05 7.437667e-05 -3.7694704e-06 -5.866445e-05 8.443496e-05 -9.902593e-05 -9.008533e-06 -1.8426956e-05
2.6571304e-05 -8.550881e-06 3.5489753e-05 1.9265628e-05 3.6817393e-05 -2.0680076e-05 1.9609537e-05 -9.882197e-05
6.7363966e-05 -1.1723536e-05 -4.513806e-05 7.1162234e-05 -6.270249e-05 5.917817e-06 1.8490042e-06 -6.9621638e-06
-7.2571365e-06 -3.4148565e-05 4.4067023e-05 -6.998625e-06 -2.5291767e-05 1.5490874e-05 -0.00011062435 3.0941366e-05
1.5264477e-05 -3.514752e-05 5.3918295e-05 -6.550534e-05 1.6536866e-05 1.0486813e-05 -1.4386825e-05 -1.4616386e-05
-3.1108582e-05 5.5208574e-07 2.0435602e-05 -3.6211427e-06 6.348212e-06 -1.908822e-05 -4.779793e-06 -1.8243904e-06
6.15961e-06 -1.4618162e-06 3.0166143e-06 1.5868436e-05 -5.339108e-06 -8.798789e-06 1.9630332e-05 -2.8451705e-05
8.90324e-06 5.3980557e-06 -1.8255598e-05 8.064577e-06 1.2300545e-05 6.777582e-05 -1.7541497e-05 -5.1247527e-05
4.8939375e-05 -3.7750982e-05 1.1704402e-05 -7.861525e-06 -4.553848e-06 2.576674e-05 -4.27666e-05 5.5370333e-06
4.468657e-05 -7.73331e-06 5.392902e-06 -6.805057e-05 -4.9523874e-06 2.9897821e-05 -2.2128006e-06 1.0567427e-05
-3.874813e-05 3.5733656e-06 3.696626e-06 6.4392443e-06 -6.361447e-06 -7.183225e-06 2.9354445e-05 2.304031e-05
-2.7255039e-05 3.1451367e-05 -0.00011939111 -1.5868962e-05 1.2687491e-05 -3.5556775e-06 -1.7549422e-05 4.1385014e-05
-1.3255001e-06 1.303821e-05 -1.4909552e-05 6.034663e-05 -3.8725113e-05 2.98727e-06 2.1628954e-05 -9.339124e-06
1.0008592e-05 -2.9839557e-05 1.6816156e-06 -6.015584e-07 -7.2627695e-06 -1.3105218e-06 -1.3738821e-05 3.9052407e-05
00000000: be22 19b7 d1d8 4736 9a64 82b6 58eb d4b6
00000010: fdd1 a337 2903 86b7 d560 04b7 440f 6c37
00000020: ba6b 84b7 59f2 c737 373a 8eb7 9e6e 8237
00000030: ede4 4136 8a2c d1b7 e410 ff37 aa0e 1e38
00000040: f500 b8b6 71f4 ceb6 ddbb ea37 1218 ddb7
00000050: 90dc 3537 15f7 26b7 02b0 1538 3d6f e4b6
00000060: 9eff ae37 9b22 40b7 c394 96b6 ddb5 aa37
00000070: 0436 1237 fd2c e737 9e0e d237 7f60 2836
00000080: f5bb 9935 e0f2 0f37 fe2d 7e36 0e30 3ab7
00000090: f1e7 1d38 182d fab6 82b0 d0b7 20e9 a737
000000a0: 898d 0a38 7929 4936 dea0 07b8 0c36 8238
000000b0: ff72 88b8 05a4 31b7 5bb6 52b6 f00c be36
000000c0: 6ccc 50b5 b848 6537 41f5 71b7 af0b 05b7
000000d0: d5f1 96b7 8c10 61b7 15f3 e237 aa33 5537
000000e0: 9dad 3e36 a7f6 f3b6 b4b2 5037 2033 58b7
000000f0: 175d 1eb7 fc4d 8037 5fe3 edb5 3fe3 2737
00000100: 9c83 9eb5 be38 a135 6490 9437 65f1 84b6
00000110: f0bb 5cb7 eb43 9eb7 f38d e4b7 337d bc37
00000120: f508 69b7 6330 dbb7 ceac a438 eec9 c6b7
00000130: 9ab0 27b7 876c 4cb6 8370 a236 6102 2d38
00000140: 1b80 5438 8687 e136 a350 65b8 0596 d338
00000150: e60d 1cb9 bb9c a736 721d 1c37 dcf1 86b7
00000160: c95f 2837 5413 8bb6 e2f4 76b7 8811 7437
00000170: 520c 8bb7 2f6e 1fb7 e323 1c37 e885 66b7
00000180: c670 4438 71c5 4bb7 bcb8 3737 6703 1ab8
00000190: cf07 c2b7 48a9 1037 2415 a036 16f9 5e37
000001a0: 5691 d337 59cb bd37 d44b 5f37 5988 34b8
000001b0: 468a 1438 370d ebb7 d97f 02b7 3ca4 3a38
000001c0: 60c7 8eb6 f727 a1b5 4c7a 15b7 42cf a8b7
000001d0: cf80 90b4 beeb 3537 165f 0cb6 7cda 0038
000001e0: 7f00 68b5 09ca f637 f8a3 63b7 8789 0b37
000001f0: d79e 4bb8 4dee 58b7 5df6 2838 7196 80b7
00000200: 291f f436 325f 47b7 3672 04b7 5d78 07b7
00000210: fec7 2537 df9a fab5 0e8b 7d37 8fd0 09b7
00000220: 220e dd34 7d4d e9b6 0cf6 82b7 48ba 8d37
00000230: 6cf5 d237 e618 d736 c0fc 76b7 131e 0b38
00000240: cb7d 03b8 acfa 9b38 02f7 7cb6 790e 76b8
00000250: ad12 b138 24ac cfb8 5b23 17b7 9693 9ab7
00000260: 71e5 de37 c175 0fb7 d5da 1438 9f9c a137
00000270: 606c 1a38 207a adb7 297f a437 a43e cfb8
00000280: c145 8d38 34b0 44b7 9f52 3db8 ef3c 9538
00000290: 257f 83b8 a991 c636 4d2b f835 889c e9b6
000002a0: 5482 f3b6 be3a 0fb8 9bd4 3838 bbd5 eab6
000002b0: a829 d4b7 66f2 8137 fffe e7b8 0ac7 0138
000002c0: 370c 8037 5d6b 13b8 5426 6238 e95f 89b8
000002d0: a6b8 8a37 85f0 2f37 f15e 71b7 e638 75b7
000002e0: 967a 02b8 0b33 1435 1f6d ab37 c202 73b6
000002f0: ba02 d536 a41f a0b7 1c62 a0b6 94dd f4b5
00000300: a6ae ce36 9f33 c4b5 0a71 4a36 351d 8537
00000310: 9726 b3b6 839e 13b7 d1ab a437 92ab eeb7
00000320: 205f 1537 f220 b536 9923 99b7 184d 0737
00000330: 705e 4e37 de22 8e38 1426 93b7 9df2 56b8
00000340: 4144 4d38 cf56 1eb8 065e 4437 fee4 03b7
00000350: 42cd 98b6 a725 d837 4960 33b8 c1ca b936
00000360: d76d 3b38 50be 01b7 adf4 b436 5fb6 8eb8
00000370: af2c a6b6 15cd fa37 a07f 14b6 c14a 3137
00000380: 7d85 22b8 f4cd 6f36 8d13 7836 b010 d836
00000390: 6a74 d5b6 6f07 f1b6 313e f637 b046 c137
000003a0: c0a1 e4b7 a6ea 0338 9d61 fab8 561e 85b7
000003b0: 5cdc 5437 139e 6eb6 1937 93b7 d294 2d38
000003c0: d6e7 b1b5 b0be 5a37 0a24 7ab7 b31c 7d38
000003d0: c66c 22b8 e878 4836 d36f b537 3baf 1cb7
000003e0: 93ea 2737 f64f fab7 dfb3 e135 c77a 21b5
000003f0: b7b2 f3b6 30e5 afb5 c97f 66b7 34cc 2338

exp_avg_sq f4 [128, 5]
3.387987e-11 3.522085e-11 6.003657e-11 6.942483e-11 4.1744344e-10 6.249575e-11 1.14481376e-10 1.1160667e-10
4.0382678e-10 5.944849e-10 1.9718246e-10 1.9352007e-10 6.278225e-10 3.3476437e-09 1.7980288e-09 2.658751e-10
2.3462293e-10 3.5751835e-10 5.4678156e-10 1.5382631e-09 1.192542e-10 8.1667825e-11 1.3632294e-10 1.4668004e-10
5.8706684e-10 1.5168442e-10 3.0684025e-10 2.747125e-10 6.240478e-10 1.6521268e-09 1.0188637e-10 7.222974e-11
7.7850504e-11 9.159408e-11 4.790936e-10 8.4738266e-10 1.0076193e-09 2.9535177e-09 1.5320001e-08 1.0959427e-08
1.6568955e-10 2.1535494e-10 3.838215e-10 1.4610291e-09 1.2356086e-09 3.9402964e-11 3.6715745e-11 1.0328655e-10
7.701463e-11 2.8222127e-10 1.1982149e-10 1.3062358e-10 1.223602e-10 2.046267e-10 8.1453283e-10 8.744032e-11
1.4232851e-10 2.8546665e-10 1.7493623e-09 6.466755e-10 1.1752009e-10 1.0388776e-10 1.212533e-10 2.4643163e-10
9.54725e-10 1.8867255e-10 1.8940148e-10 2.7366232e-10 3.5521783e-10 1.9057316e-09 4.4292955e-10 5.422131e-10
9.1081287e-10 4.3166692e-09 4.6581445e-09 1.3308626e-10 2.5660332e-10 1.6834908e-10 6.4565653e-10 1.447291e-09
6.01788e-10 9.116902e-10 2.8269065e-09 1.4720731e-08 4.8859765e-09 9.027432e-11 1.7991543e-10 1.5878615e-10
4.8384463e-10 9.404671e-10 1.8466177e-10 1.4059603e-10 2.1004001e-10 6.387875e-10 1.5182283e-09 7.4040823e-10
8.298286e-10 1.5211451e-09 7.046671e-09 8.4210745e-09 1.07747256e-10 1.3330204e-10 1.2295609e-10 2.2804222e-10
7.105433e-10 3.720865e-10 5.5585714e-10 1.7081285e-09 1.0284044e-08 3.6524417e-09 6.1765126e-10 6.944855e-10
8.3104745e-10 8.914807e-10 6.5318497e-09 1.15493635e-10 2.1760181e-10 1.4372412e-10 7.1748896e-10 1.2000398e-09
4.321108e-10 4.1710949e-10 4.9405596e-10 6.7933165e-10 3.9794577e-09 4.8311977e-10 7.1073025e-10 7.085062e-10
1.4310149e-09 6.1505907e-09 6.271372e-11 8.3702274e-11 7.606417e-11 1.1993764e-10 6.3992883e-10 1.5255638e-10
1.881312e-10 2.5210647e-10 1.0383677e-09 1.297168e-09 1.2747291e-10 1.9056694e-10 2.2497068e-10 3.3884945e-10
1.0579413e-09 9.476787e-10 7.606965e-10 1.5876426e-09 4.863875e-09 5.3175295e-09 1.5748165e-10 3.1004152e-10
1.7183316e-10 4.5602772e-10 1.4827235e-09 9.2937447e-10 1.1093672e-09 4.092172e-09 1.7947357e-08 9.986088e-09
5.7581667e-10 3.2865577e-10 5.9738287e-10 1.4407165e-09 3.03268e-09 6.260821e-11 5.788721e-11 1.1591318e-10
2.6873814e-10 4.159269e-10 3.1444863e-10 2.0683509e-10 9.575815e-10 4.372364e-09 1.987048e-09 2.318106e-10
3.2196087e-10 5.368186e-10 1.091408e-09 1.9868802e-09 4.1289702e-10 4.6090945e-10 1.4258509e-09 6.947478e-09
3.7532164e-09 2.5233224e-10 5.2061555e-10 7.6722834e-10 3.144288e-09 2.8104454e-09 5.623432e-11 7.364515e-11
2.4865943e-10 8.505272e-10 5.4188987e-10 4.3591616e-11 2.8834332e-11 1.8518405e-10 9.453791e-10 2.5993216e-10
1.6822442e-10 1.7888492e-10 1.5448384e-10 4.865788e-10 1.1403779e-09 5.964596e-10 4.951861e-10 7.5585044e-10
1.98937e-09 4.0214356e-09 1.8559448e-10 2.0833191e-10 5.7417304e-10 1.4634733e-09 1.4309164e-09 7.1987827e-10
7.2962e-10 1.0646979e-09 1.1815339e-09 8.360001e-09 2.5009575e-10 2.3577373e-10 2.3403426e-10 3.25834e-10
2.4996756e-09 3.5886766e-11 3.1742668e-11 1.6125108e-10 6.1504907e-10 3.2852512e-10 4.3667533e-10 4.3901274e-10
1.2839836e-09 3.7005872e-09 4.03173e-09 1.3386504e-10 2.0078357e-10 2.8619504e-10 7.6448636e-10 1.4613295e-09
3.208721e-10 3.0985756e-10 5.257139e-10 1.3481288e-09 2.0229598e-09 1.9668231e-10 2.707664e-10 5.863796e-10
2.8135798e-09 2.0235464e-09 1.8810623e-11 1.6535447e-11 3.8402947e-11 8.3740036e-11 1.2231322e-10 2.2949954e-10
00000000: 5801 152e 27e7 1a2e 9605 842e b4aa 982e
00000010: f17d e52f fb6d 892e 49bf fb2e f86c f52e
00000020: 9101 de2f 2869 2330 eecd 582f 0fc7 542f
00000030: 1593 2c30 5f0c 6631 841e f730 982a 922f
00000040: 3efc 802f 3c8c c42f 554c 1630 d26a d330
00000050: 131f 032f e696 b32e 7fe3 152f c346 212f
00000060: 285f 2130 5ec7 262f edaf a82f 5906 972f
00000070: 7689 2b30 0b11 e330 ed0c e02e bbd5 9e2e
00000080: f031 ab2e e26a c92e 37b1 0330 41ed 6830
00000090: 747c 8a30 d5f6 4a31 0a99 8332 1248 3c32
000000a0: 762d 362f 07c9 6c2f 1302 d32f 64cd c830
000000b0: 1dd2 a930 cb4b 2d2e 417a 212e 2921 e32e
000000c0: 625b a92e 1d27 9b2f c0be 032f 459f 0f2f
000000d0: 5689 062f 4cfd 602f a7e5 5f30 8648 c02e
000000e0: ea7d 1c2f dcef 9c2f 376e f030 bec1 3130
000000f0: f736 012f 9c73 e42e c551 052f 2b7a 872f
00000100: 6637 8330 9a72 4f2f c73f 502f 8c72 962f
00000110: 7748 c32f fcf5 0231 cb80 f32f db0a 1530
00000120: c25c 7a30 d351 9431 790d a031 7454 122f
00000130: b511 8d2f 0e1a 392f 0a7a 3130 06ea c630
00000140: 116b 2530 7f9a 7a30 7743 4231 76e6 7c32
00000150: 81e1 a731 ed83 c62e b1d1 452f 5496 2e2f
00000160: 8aff 0430 bf41 8130 ab09 4b2f 4496 1a2f
00000170: 02f1 662f ad96 2f30 e9a9 d030 9985 4b30
00000180: ff19 6430 8910 d130 2c1f f231 47ac 1032
00000190: 50f0 ec2e 3091 122f 1031 072f 2ebc 7a2f
000001a0: 0a50 4330 858e cc2f f8ca 1830 6ec3 ea30
000001b0: b4ad 3032 6ffe 7a31 58c7 2930 13e6 3e30
000001c0: c46f 6430 610c 7530 c26e e031 23f9 fd2e
000001d0: 7741 6f2f be06 1e2f cc38 4530 a6ee a430
000001e0: 308e ed2f f14e e52f 19ce 0730 b7bb 3a30
000001f0: aebb 8831 88cc 0430 325d 4330 b1c0 4230
00000200: 5cad c430 2b55 d331 b0e8 892e 3110 b82e
00000210: 5244 a72e 72df 032f fde6 2f30 cebc 272f
00000220: 3ada 4e2f d598 8a2f 51b6 8e30 0b48 b230
00000230: 6f28 0c2f d387 512f 9e5b 772f d248 ba2f
00000240: 0067 9130 7b3f 8230 4219 5130 3534 da30
00000250: 191f a731 7cb5 b631 2527 2d2f 7772 aa2f
00000260: bcee 3c2f 32b4 fa2f b2c8 cb30 ea76 7f30
00000270: 6378 9830 209b 8c31 a82a 9a32 488f 2b32
00000280: 7f47 1e30 30ae b42f 1535 2430 b502 c630
00000290: 7967 5031 4aad 892e 3497 7e2e 52e5 fe2e
000002a0: 88bd 932f 82a8 e42f b6de ac2f e76a 632f
000002b0: e79b 8330 b83b 9631 858c 0831 e2e0 7e2f
000002c0: f7ff b02f 408f 1330 8100 9630 9189 0831
000002d0: 17fe e22f 3d63 fd2f abf7 c330 aab6 ee31
000002e0: a4f5 8031 9bb8 8a2f 101b 0f30 e5e4 5230
000002f0: e612 5831 e121 4131 3752 772e 89f2 a12e
00000300: b4b3 882f 88ca 6930 1cf4 1430 ccb7 3f2e
00000310: 25a1 fd2d ad9c 4b2f 92ee 8130 33e6 8e2f
00000320: f7f6 382f a1af 442f 56db 292f f0bf 0530
00000330: 7bbb 9c30 1df4 2330 a01d 0830 3fc4 4f30
00000340: 5eb5 0831 ec2c 8a31 3410 4c2f 3810 652f
00000350: d6d3 1d30 6423 c930 e5a9 c430 eee0 4530
00000360: 718e 4830 ba54 9230 8763 a230 ac9f 0f32
00000370: d97d 892f 349e 812f 65a9 802f 0f21 b32f
00000380: c2c6 2b31 e8d4 1d2e 119b 0b2e 254c 312f
00000390: 3b10 2930 cd9b b42f 9710 f02f 8d59 f12f
000003a0: 2878 b030 6b4d 7e31 7987 8a31 a92f 132f
000003b0: 8dc3 5c2f 5f56 9d2f f223 5230 f6d7 c830
000003c0: bc66 b02f 9358 aa2f d481 1030 1149 b930
000003d0: 4904 0b31 2641 582f fcda 942f cc2e 2130
000003e0: 0559 4131 9b0e 0b31 c275 a52d 8472 912d
000003f0: e0e5 282e 7325 b82e 1c7c 062f 6156 7c2f

exp_avg f4 [128]
-1.9331537e-05 2.9185516e-05 2.1159694e-05 -5.484721e-05 -2.3583198e-05 2.8720775e-05 -2.6514972e-06 -1.2896832e-05
-5.609307e-05 2.0431899e-05 -1.886599e-05 -1.0721672e-05 4.7692196e-05 -2.5403091e-05 -6.031838e-05 -9.342294e-06
-0.00011131417 -3.310916e-05 -2.2051841e-05 9.105653e-05 6.545144e-05 -8.141502e-05 -1.6545033e-06 5.829435e-05
2.2144139e-05 1.4640062e-05 9.076234e-06 -2.1816526e-05 -4.0525694e-05 -0.00017220483 1.7707853e-05 -1.6947117e-05
-0.00011513399 -3.0020434e-05 -9.3793555e-05 -6.390861e-05 -5.863734e-05 1.8623481e-05 1.1714138e-05 -3.9061655e-05
-7.204122e-05 -0.000119845885 -8.927356e-06 4.9838276e-05 4.0933108e-05 -3.6882302e-06 -3.977834e-05 8.1675635e-06
2.4659314e-05 -7.351324e-06 -1.5115904e-05 -3.4695724e-05 -6.745733e-05 -6.930404e-06 3.2906944e-05 -2.6189036e-06
-4.093289e-05 4.822334e-06 -3.870298e-05 -0.0002084261 -6.8129215e-05 -1.871905e-05 -7.40809e-05 2.9020926e-05
1.3845671e-05 5.5484206e-06 -2.1604668e-05 -1.400275e-05 -1.1021196e-05 -7.38608e-05 -2.7971876e-07 9.941291e-06
-0.000112576156 -8.9739246e-05 -4.6664914e-05 -3.697923e-05 4.690539e-06 -2.8392438e-05 2.4218562e-05 3.56231e-06
-4.9690712e-05 6.608137e-06 2.627274e-05 -0.00014501967 3.2795997e-05 -1.3692095e-05 -5.3852298e-05 3.7623909e-06
1.1884194e-05 -5.7656907e-05 1.745659e-05 7.1563954e-05 -3.9992537e-05 2.421309e-05 -0.00011235737 1.325754e-06
2.3973427e-05 3.1533884e-05 1.0264981e-05 -8.8988294e-05 -8.818413e-05 -1.1068653e-05 -3.776156e-06 -0.00013103106
-7.959571e-05 -6.688335e-05 1.5553434e-05 6.4263404e-05 9.1944596e-05 3.7687387e-05 -5.674207e-05 -8.356369e-05
-2.3663739e-05 -3.483194e-05 2.6490457e-05 2.6349388e-05 -5.9100974e-05 -3.9829458e-05 5.6124994e-05 3.5249737e-05
1.4997101e-05 -1.2050621e-05 2.1921554e-05 3.6190504e-05 -6.764658e-05 -3.977182e-06 -1.0499404e-05 5.878484e-05
00000000: 292a a2b7 6bd3 f437 1980 b137 be0b 66b8
00000010: 88d4 c5b7 65ed f037 60f0 31b6 795f 58b7
00000020: 7a45 6bb8 2b65 ab37 6842 9eb7 3be1 33b7
00000030: 1b09 4838 b918 d5b7 5efe 7cb8 d9bc 1cb7
00000040: 5771 e9b8 b1de 0ab8 f8fb b8b7 9af5 be38
00000050: f942 8938 5bbd aab8 4d10 deb5 1581 7438
00000060: 2dc2 b937 969e 7537 2146 1837 a202 b7b7
00000070: 22fa 29b8 e291 34b9 538b 9437 a829 8eb7
00000080: 1774 f1b8 64d4 fbb7 08b3 c4b8 ac06 86b8
00000090: 5df1 75b8 9f39 9c37 d787 4437 22d6 23b8
000000a0: d614 97b8 c555 fbb8 b4c6 15b7 7109 5138
000000b0: 97af 2b38 5083 77b6 abd7 26b8 6b07 0937
000000c0: 79db ce37 64ab f6b6 509a 7db7 4086 11b8
000000d0: e177 8db8 b88b e8b6 9005 0a38 6cc0 2fb6
000000e0: 5baf 2bb8 89cf a136 0255 22b8 f58c 5ab9
000000f0: 98e0 8eb8 db06 9db7 e15b 9bb8 f771 f337
00000100: b44a 6837 922c ba36 ac3b b5b7 5aed 6ab7
00000110: ade7 38b7 b7e5 9ab8 412c 96b4 85c9 2637
00000120: dd16 ecb8 6432 bcb8 12ba 43b8 251a 1bb8
00000130: 6c63 9d36 4c2c eeb7 f728 cb37 0510 6f36
00000140: ff6a 50b8 77bb dd36 4864 dc37 6c10 18b9
00000150: 6f8e 0938 1ab7 65b7 77df 61b8 627d 7c36
00000160: 3962 4737 a2d4 71b8 be6f 9237 9b14 9638
00000170: a9bd 27b8 371d cb37 67a1 ebb8 90f0 b135
00000180: 8b1a c937 4043 0438 c237 2c37 3a9f bab8
00000190: 7fef b8b8 81b3 39b7 de69 7db6 6265 09b9
000001a0: 9fec a6b8 ba43 8cb8 bf78 8237 27c5 8638
000001b0: 61d2 c038 8612 1e38 55fe 6db8 ea3e afb8
000001c0: 7e81 c6b7 8318 12b8 d337 de37 e108 dd37
000001d0: 30e3 77b8 8e0e 27b8 c167 6b38 1ed9 1338
000001e0: 0f9c 7b37 062d 4ab7 2ee4 b737 42cb 1738
000001f0: 7bdd 8db8 bc73 85b6 9926 30b7 be8f 7638

exp_avg_sq f4 [128]
5.8523847e-10 1.447045e-09 3.7903063e-09 3.8903623e-09 1.2688782e-09 2.8940323e-09 1.387271e-09 1.5397049e-08
3.7147954e-09 8.504825e-10 2.2710884e-09 1.8036274e-09 1.3866147e-09 3.6959056e-09 6.520133e-09 2.9096854e-09
1.3025705e-08 1.8866413e-09 2.7432376e-09 1.1473618e-08 1.7370263e-09 7.7644e-09 9.6537e-09 2.7194396e-09
5.721562e-09 9.275363e-09 1.0853658e-09 3.467558e-09 2.695573e-09 1.3468793e-08 3.3533636e-09 1.5161582e-08
6.8574955e-09 1.0444432e-09 4.459023e-09 4.7852615e-09 7.2252635e-09 4.8167745e-09 1.0185901e-09 5.351146e-10
2.6211535e-09 7.86749e-09 2.4944842e-09 1.1106184e-08 3.3788743e-09 5.0708293e-10 7.1094095e-09 2.507043e-09
4.8908424e-09 3.1407463e-09 2.4329708e-10 2.6409468e-09 1.9074797e-09 4.737811e-10 2.0385302e-09 4.715194e-10
1.3040402e-08 1.90341e-09 4.4021466e-09 1.537365e-08 2.1721034e-09 2.9466662e-09 6.2281393e-09 4.943886e-09
3.0519087e-09 4.760355e-09 1.4727455e-08 3.4086403e-09 9.067369e-09 4.0374375e-09 2.5552696e-09 3.071454e-09
4.163158e-09 9.147949e-09 3.6318826e-09 2.5869584e-09 9.902605e-10 1.443491e-09 2.605191e-09 3.140625e-10
3.914681e-09 1.5954913e-09 3.621019e-09 1.257995e-08 1.7866368e-09 6.4753127e-09 1.166324e-09 6.785185e-10
2.1390516e-09 2.2896374e-09 7.781623e-09 2.0940567e-09 8.261725e-09 1.2514701e-09 6.2979417e-09 5.2200977e-09
1.9724387e-09 4.1279624e-09 2.4854774e-09 1.42089585e-08 4.528358e-09 4.848581e-09 1.18766215e-08 6.6117436e-09
3.705146e-09 6.3859926e-09 9.654926e-10 2.5119475e-09 1.7002039e-08 2.3819327e-09 2.5090021e-09 6.2829657e-09
7.2351316e-09 2.068328e-08 1.7393837e-08 1.6565483e-08 1.5460141e-09 4.410426e-09 4.132611e-09 2.458662e-09
3.5604146e-09 1.1611409e-09 8.2721225e-09 1.4298578e-09 5.2715765e-09 4.3869458e-10 3.893394e-09 3.9995816e-09
00000000: 7fde 2030 5fe1 c630 e33b 8231 fdab 8531
00000010: af64 ae30 5be0 4631 42aa be30 7842 8432
00000020: 5f47 7f31 63c7 6930 6911 1c31 7fe3 f730
00000030: 2b93 be30 0ffb 7d31 b207 e031 baf3 4731
00000040: a8c7 5f32 25a6 0131 8c83 3c31 811d 4532
00000050: 2ebc ee30 3164 0532 6cd9 2532 e3e0 3a31
00000060: 6497 c431 7a59 1f32 ea2b 9530 ed49 6e31
00000070: 063d 3931 6164 6732 ff70 6631 ac3c 8232
00000080: 2b9f eb31 148c 8f30 fb35 9931 9b6b a431
00000090: 1742 f831 cc80 a531 74fe 8b30 5817 1330
000000a0: d21f 3431 9629 0732 6e6b 2b31 84cd 3e32
000000b0: c931 6831 ca62 0b30 0747 f431 5e48 2c31
000000c0: 4e0c a831 98d4 5731 05c1 852f 077c 3531
000000d0: bd14 0331 623b 0230 3416 0c31 3a9c 0130
000000e0: 4b08 6032 25cd 0231 b141 9731 040f 8432
000000f0: 0c44 1531 4d7e 4a31 4bff d531 e2de a931
00000100: bfb9 5131 8790 a331 0804 7d32 6f3d 6a31
00000110: b6c6 1b32 adb9 8a31 c798 2f31 9711 5331
00000120: 860b 8f31 1b29 1d32 c194 7931 41c6 3131
00000130: b219 8830 5364 c630 0107 3331 5ea8 ac2f
00000140: e681 8631 5c48 db30 a4d5 7831 351f 5832
00000150: b28d f530 747d de31 614c a030 7f82 3a30
00000160: 98fe 1231 ba57 1d31 f1af 0532 09e7 0f31
00000170: 73ef 0d32 3100 ac30 4865 d831 775c b331
00000180: 828b 0731 f1d5 8d31 fbcc 2a31 a91b 7432
00000190: dc97 9b31 9298 a631 ef09 4c32 832d e331
000001a0: 9e9d 7e31 c96b db31 40b2 8430 a69e 2c31
000001b0: e10b 9232 67af 2331 d56a 2c31 8de1 d731
000001c0: e498 f831 04ab b132 7469 9532 e24b 8e32
000001d0: 897b d430 848a 9731 d5fe 8d31 3df5 2831
000001e0: 7aab 7431 0396 9f30 2e1d 0e32 a684 c430
000001f0: 4721 b531 c62c f12f a8c6 8531 b16c 8931
