Turtle/results/turtle1/Turtle/Turtle-10436.pt (torch, 150032 bytes, 11 tensors)

network_body._body_endoder.seq_layers.0.weight f4 [128, 5]
00000000: 6a13 053f e519 1f3e b3ab 1ebf d01e f23e
00000010: 460d 8bbe a124 b3bd f90c 723d 870e 2fbe
00000020: d99f 03bd 5a45 21bd a6bf 16be f6f6 3abe
00000030: baff d23e aca4 0dbf e2ef 02bf 7284 653e
00000040: b7f1 043e 77bd 0ebe 5c7c 823e 7446 fe3e
00000050: 55f9 913d 314a ef3e 5351 96bf dcf4 4b3f
00000060: 7c40 a03e 7d1a aabe baa9 d43e cfbb 82bf
00000070: 9487 4e3c 28dc 453e 5fed d03e 848a 56be
00000080: 87b0 91be 1de9 5b3f 830e 283f 7f0c 2cbe
00000090: d6c6 b7be e69b 5e3e 6e92 c6be 18be 49bf
000000a0: 45fd 36bf e027 b83b 76cd 073f d791 1fbe
000000b0: 0d1e 143f 2a8e 7c3e 8f31 30bf 1374 663e
000000c0: c6ea 9b3e 8f99 18bb 4da3 ce3e be72 51be
000000d0: cceb f2be ea55 243e 7b25 96be 80fa 34bc
000000e0: d9dd 40be b122 383c f4d2 0ebe b238 813e
000000f0: 4d8f a03d 3c61 1a3f 388e 8bbd 6d7d 933d
00000100: 39da febe 4c9f cf3e fb20 023f 0cf0 8d3e
00000110: 8008 dc3e aafd 10bf 7c41 423f 448d 1e3f
00000120: 68c9 0cbe 141d 83be b8b6 6bbf 3690 2e3f
00000130: 6fd8 89be ebfb 2dbf 8d3f 63be 38dd 7abe
00000140: b2a3 51bf a73b 343e d2ae 563f 62db 1dbe
00000150: 8944 4f3e 5ae8 cf3e f142 21be dc9e 453e
00000160: 9cf0 013e 8a9d 64be 89da 753f 6564 953e
00000170: e75f 1bbe 12ba dcbd 1036 69be 6a9e dbbe
00000180: 0c9f 743e 94f1 47be 1c56 31be 800c 4abf
00000190: 467e 6dbf dd61 403e 7ed3 7abf b78b 3f3e
000001a0: 995a f1be 1cfd 4d3f 1f51 a6bf 6bf9 eb3c
000001b0: b248 e6be d903 193f b19a d63e 272d 5f3e
000001c0: 8f53 be3d 5331 543f 6310 a4be b086 4bbd
000001d0: dd44 87bf 3463 26be d460 38bf b073 cdbe
000001e0: 4cba dd3e 802e 21be 0133 413d 6a0a 853e
000001f0: 3c5a b3bd 0d69 01bf 3dd2 3dbf f083 0c3d
00000200: c924 d33e 80d2 2bbf c053 823e 874f 8f3e
00000210: d858 c5be 4706 103f 7bcc 1fbc 119f 923e
00000220: 5453 273d ed18 04bc 9d6f 85bd 6a11 98be
00000230: 2c6d 9f3e bbff 20bf 9ee5 823c 74a5 973e
00000240: a9c3 123f c37d 0cbf 277e 7e3d cccd 7c3f
00000250: 6479 753e cf10 de3e 12c0 bdbe 6d36 033e
00000260: 93b8 50bf 8d86 8d3e 3afa 9eba d037 f23c
00000270: ff95 d4be bca1 1a3f 41f7 6dbd 3a9a aabe
00000280: 3e6b 8e3e 3c83 543f 0774 293f 7b03 0d3e
00000290: 4698 463f 506c b23e 6157 6cbc 7479 ac3e
000002a0: 4dc0 5d3e 854b 3c3e 2784 b33e 3253 a13f
000002b0: cf99 753f 7e67 aebe e666 133e 1845 96be
000002c0: a9ba d0bd 8fb1 1f3f 0559 953e a550 ac3e
000002d0: 400b d33e c875 a93e 2582 1f3f d26b 9abe
000002e0: 8168 c2be 93e1 b3be ca93 0fbf 1ab7 333f
000002f0: b78f 95be 68dc f0be 6b1c 9d3d 9434 41bf
00000300: c251 433e c122 67be 2fcc a7bd 40b1 7f3c
00000310: 6db5 f7bd 4ca7 723e 6985 fdbe 248e 99bb
00000320: bd19 ea3e 52e7 943d f763 0e3f 4f1c 6a3e
00000330: 600e 08be e918 dc3e f5ae 263e 2140 a4bc
00000340: b982 2dbe 91bc 1a3f 2405 783e d511 d43e
00000350: 11ee 3f3e f1bf 4ebf 5594 e83e 9890 9cbe
00000360: a27f 973e d9d7 b73e e8d7 ff3e e8b1 1fbf
00000370: 8f47 dbbb 1139 543e 9733 af3e fdf8 403f
00000380: e847 cbbe aa29 98be 699e c33e 2e7c 7c3d
00000390: 797e b1be 96dd 02be 2f6d b13e 4d4c 053f
000003a0: 025f 243f 8a9c 603e 6e54 853d 4312 023f
000003b0: 9b8b 523f 5b42 56be 520a a5bf 0cd3 7bbf
000003c0: f3b3 1bbf 5ebe 9e3c 79a8 83bd e051 bfbd
000003d0: 971d fb3e 5fd9 e83e 6b4c 42be 84e3 2d3f
000003e0: d4ac 173e fafa 8abe 955b 873e dd64 0e3f
000003f0: 827f eb3d 7aaa 60bd f9c8 923e 9df5 f13e
0.5198275 0.15537222 -0.6198074 0.47289133 -0.27158564 -0.08747221 0.059094403 -0.17095385
-0.032134864 -0.03937278 -0.14721546 -0.1825827 0.4121073 -0.55329394 -0.5114728 0.22413805
0.12982832 -0.13939463 0.25485504 0.49663126 0.071276344 0.4673629 -1.1743568 0.796705
0.31299198 -0.33223334 0.4153574 -1.0213565 0.0126055665 0.19322264 0.408061 -0.20951277
-0.28454992 0.8590258 0.65647143 -0.16801642 -0.35893887 0.21739158 -0.38783592 -0.78805685
-0.7148021 0.005619988 0.53047884 -0.15582977 0.57858354 0.24663606 -0.6882562 0.22505216
0.30452555 -0.0023284887 0.40358964 -0.20453927 -0.47445524 0.16048399 -0.2932547 -0.011046052
-0.18834628 0.01123874 -0.1394766 0.25238568 0.078398325 0.6030462 -0.068142354 0.072016574
-0.49775866 0.4055122 0.50831574 0.27722204 0.42975235 -0.5663706 0.7588117 0.61934304
-0.13748705 -0.25608122 -0.9207568 0.681888 -0.26922938 -0.6796252 -0.22192211 -0.24498451
-0.81890404 0.1760088 0.83860505 -0.15415719 0.20240988 0.40606958 -0.15748192 0.19298881
0.12689441 -0.22325721 0.96036583 0.29178157 -0.15173303 -0.107776776 -0.2277453 -0.42894298
0.23888797 -0.19525748 -0.17318004 -0.78925323 -0.927708 0.18787332 -0.9797896 0.1870564
-0.47139433 0.8046434 -1.2993506 0.028805455 -0.44977337 0.59771496 0.41914895 0.21794568
0.09293281 0.8288776 -0.32043752 -0.049688995 -1.056789 -0.1624878 -0.7202275 -0.40127325
0.43306196 -0.15740395 0.04716778 0.25984508 -0.08757445 -0.5055092 -0.74148923 0.034305513
0.41239002 -0.6711807 0.2545452 0.27990362 -0.38544345 0.5625958 -0.009753342 0.28636983
0.040850952 -0.008062583 -0.06515429 -0.29700786 0.3113798 -0.62890214 0.01597863 0.29618418
0.57329804 -0.548794 0.062132027 0.9875152 0.23972088 0.433722 -0.370606 0.1281373
-0.8153164 0.27641717 -0.0012129017 0.02956763 -0.41520688 0.6040304 -0.058097128 -0.3332079
0.27816194 0.8301275 0.6619267 0.13770859 0.775761 0.3484826 -0.01442513 0.3368641
0.21655388 0.18388183 0.35061762 1.2603514 0.9593782 -0.34063333 0.14394721 -0.2934959
-0.101918526 0.6238031 0.2916948 0.33655277 0.4121952 0.33097672 0.6230796 -0.30160385
-0.37970355 -0.35133037 -0.56084883 0.70201266 -0.29211208 -0.47043157 0.07671436 -0.7547085
0.19074157 -0.22571851 -0.08193242 0.015606225 -0.12095151 0.23696631 -0.49515846 -0.004686134
0.45722762 0.07270683 0.55621284 0.22862361 -0.13286734 0.42987755 0.16277678 -0.02005011
-0.16944398 0.6044398 0.24220711 0.41419855 0.18743159 -0.8076163 0.45425668 -0.30579066
0.29589564 0.35906866 0.4996941 -0.6238084 -0.00669188 0.20724894 0.34219047 0.75379926
-0.39703298 -0.29719287 0.38206795 0.061641864 -0.34666803 -0.12779841 0.34653613 0.5206955
0.6420747 0.21934715 0.06510244 0.50809115 0.8224427 -0.2092375 -1.2893775 -0.98368907
-0.60821456 0.019377884 -0.06428618 -0.09341788 0.49046013 0.4547834 -0.18974464 0.67925286
0.14812022 -0.27144605 0.2643706 0.55622655 0.114989296 -0.05485008 0.28668955 0.472577

network_body._body_endoder.seq_layers.0.bias f4 [128]
00000000: 0000 0000 0000 0000 0000 0000 0000 0000
00000010: 0000 0000 0000 0000 0000 0000 0000 0000
00000020: 0000 0000 0000 0000 0000 0000 0000 0000
00000030: 0000 0000 0000 0000 0000 0000 0000 0000
00000040: 0000 0000 0000 0000 0000 0000 0000 0000
00000050: 0000 0000 0000 0000 0000 0000 0000 0000
00000060: 0000 0000 0000 0000 0000 0000 0000 0000
00000070: 0000 0000 0000 0000 0000 0000 0000 0000
00000080: 0000 0000 0000 0000 0000 0000 0000 0000
00000090: 0000 0000 0000 0000 0000 0000 0000 0000
000000a0: 0000 0000 0000 0000 0000 0000 0000 0000
000000b0: 0000 0000 0000 0000 0000 0000 0000 0000
000000c0: 0000 0000 0000 0000 0000 0000 0000 0000
000000d0: 0000 0000 0000 0000 0000 0000 0000 0000
000000e0: 0000 0000 0000 0000 0000 0000 0000 0000
000000f0: 0000 0000 0000 0000 0000 0000 0000 0000
00000100: 0000 0000 0000 0000 0000 0000 0000 0000
00000110: 0000 0000 0000 0000 0000 0000 0000 0000
00000120: 0000 0000 0000 0000 0000 0000 0000 0000
00000130: 0000 0000 0000 0000 0000 0000 0000 0000
00000140: 0000 0000 0000 0000 0000 0000 0000 0000
00000150: 0000 0000 0000 0000 0000 0000 0000 0000
00000160: 0000 0000 0000 0000 0000 0000 0000 0000
00000170: 0000 0000 0000 0000 0000 0000 0000 0000
00000180: 0000 0000 0000 0000 0000 0000 0000 0000
00000190: 0000 0000 0000 0000 0000 0000 0000 0000
000001a0: 0000 0000 0000 0000 0000 0000 0000 0000
000001b0: 0000 0000 0000 0000 0000 0000 0000 0000
000001c0: 0000 0000 0000 0000 0000 0000 0000 0000
000001d0: 0000 0000 0000 0000 0000 0000 0000 0000
000001e0: 0000 0000 0000 0000 0000 0000 0000 0000
000001f0: 0000 0000 0000 0000 0000 0000 0000 0000
0.0 0.0 0.0 0.0 0.0 0.0 0.0 0.0
0.0 0.0 0.0 0.0 0.0 0.0 0.0 0.0
0.0 0.0 0.0 0.0 0.0 0.0 0.0 0.0
0.0 0.0 0.0 0.0 0.0 0.0 0.0 0.0
0.0 0.0 0.0 0.0 0.0 0.0 0.0 0.0
0.0 0.0 0.0 0.0 0.0 0.0 0.0 0.0
0.0 0.0 0.0 0.0 0.0 0.0 0.0 0.0
0.0 0.0 0.0 0.0 0.0 0.0 0.0 0.0
0.0 0.0 0.0 0.0 0.0 0.0 0.0 0.0
0.0 0.0 0.0 0.0 0.0 0.0 0.0 0.0
0.0 0.0 0.0 0.0 0.0 0.0 0.0 0.0
0.0 0.0 0.0 0.0 0.0 0.0 0.0 0.0
0.0 0.0 0.0 0.0 0.0 0.0 0.0 0.0
0.0 0.0 0.0 0.0 0.0 0.0 0.0 0.0
0.0 0.0 0.0 0.0 0.0 0.0 0.0 0.0
0.0 0.0 0.0 0.0 0.0 0.0 0.0 0.0

network_body._body_endoder.seq_layers.2.weight f4 [128, 128]
00000000: fd6c 9cbd d63c 4fbc 18cf 6fbc bc78 b13d
00000010: 214f 463d 9994 8e3d a9d9 05bd 98d1 59bd
00000020: c2c3 d8bd 1a8c 0d3d 20f1 0e3e c622 573c
00000030: a543 1bbc 4388 72bc 99f3 12bb f54b 6cbb
00000040: 76ce 92bd ee3b 6e3d c869 6c3d e121 0d3d
00000050: 2dba 2e3d 6918 8d3d 859b efbb 7205 7dbc
00000060: c802 f83c 4985 ca3d e199 1f3e c17c 3a3c
00000070: 303c 623d 73bd 073c 4517 0dbb f6f3 55bd
00000080: 6072 e63c abe0 75bd 8089 103d d4ac 0ebd
00000090: 03de d4bc 483f 1ebe 1753 3a3c 347d c83d
000000a0: 8588 df3c 3c70 80bd d089 afbb 98e0 713e
000000b0: efe7 683d 208c 92ba 75c4 8abd e2a7 cc3d
000000c0: c2eb 8ebd 551e c2bd c18d 23be ad1c aebd
000000d0: 4a5d 95bd 6d4c e93d 0f7b 51bd ec19 243e
000000e0: 5923 b4bd a879 493c bc0d a63d 4d9f 673e
000000f0: 12ee 413e 6cd1 c3bd 41a0 333d ed4c 0bbe
00000100: 944f d3bc 4120 69bd b073 a13d 01bc af3d
00000110: 0a08 04be bade c9bd 4be6 dbbc b21a cfbd
00000120: 8dfa 273d 508a 2dbd 3ed2 1c3e 7c10 4cbe
00000130: de92 1e3e 0702 ba3d b8f8 353e 6433 57be
00000140: 0656 043e 6a65 763d 89c9 6cbd 1470 44ba
00000150: fbf9 e1bd bc8d dc3c 17e1 9bbc 7d3b 9dbd
00000160: 3eea 563c 2630 ce3c 05f4 133e 78f9 233b
00000170: 961a 7bbd 2b90 cc3d 6a7a f93c 5452 85bc
00000180: a07d b53c c671 01bb 40a0 a5bc ddee 19bd
00000190: e2a0 5fbd 2c67 d43d d985 933d fcf5 263e
000001a0: 9f9e 2f3d 0c96 0e3d 7d25 d4bd 84ae 83bc
000001b0: ab1d d2bd 0c0b 95bd 2f63 00be d9ee a9bd
000001c0: d6f2 cc3d 3c0f 0d3b d8b4 0dbe eaa6 c63d
000001d0: 1833 493d 86ce edbd dca7 b83d 7b9f e23c
000001e0: c703 4d3d 1e16 6fbd 4655 14be d621 1d3e
000001f0: 37dc 35bd fcb3 25be fa59 0abe b09e 90bd
00000200: 9cb5 e0bd f449 85bb 8ca9 2bbb bb56 cfbd
00000210: 6b49 da3c 95f8 8a3d d59b 8dbc 13fe e4bc
00000220: 0168 c53d e2bb 2cbc 1dc8 9cbc a52c bd3d
00000230: 78b9 083e e310 6e3d 147f 6abd 4ae9 ef3d
00000240: 1f92 413d 7364 83bc 871b 1d3e 1033 18be
00000250: c9e7 223e 2d43 d13d f962 b83d d1d6 02be
00000260: 1629 523d 2c31 29be 8357 86bb c84c c73d
00000270: 0c03 923d 37fc 9ebb 0b1b d5bd b0a0 093e
00000280: 2b5d a23c 86ec 563c 323a 98bd 888b 3b3e
00000290: a822 473d baea 02be 5ef3 493e 4b7a ff3d
000002a0: 2691 cb3d 1827 87ba 50c5 0a3e 2d02 07be
000002b0: bd7f be3c c5ac a43d 1ca2 ce3c bdb0 14be
000002c0: 46a7 d53c 184d 79bc 18b6 b0bc 5b4c 983d
000002d0: f9c0 b5bd 1c70 623d e7b6 00bd 34d8 b93d
000002e0: ab3a 06be 473f 8e3d 7a7b be3d d3a8 1ebd
000002f0: 83f0 55bd e688 f3bc 29c8 47bd 88f2 a53a
00000300: 5a91 64bd 4ff1 2abc de65 18bd 0731 923c
00000310: bb70 7fbd e868 91bd 19e4 ccbd 08fb 993d
00000320: e125 ed3d 04d7 353d f055 88bc e55d a4bd
00000330: 66be 553d 2c70 90bc f4c2 73bd 05c2 ecbc
00000340: e418 8e3c c6d4 143c 2fb8 b33d 3445 3d3e
00000350: eeb6 ae3c 316e 0dbe 0c8e eabc 2188 923d
00000360: eb24 313d 5753 b03c f926 913c aa62 97bd
00000370: 9bcf 8abd 7a5d 673c a3c9 b53d db42 5c3d
00000380: 74aa 9e3d d54f 0b3e a122 d83c dd94 aa3d
00000390: a982 ba3d e5f2 1fbd fd1b 64bd cd5b 07be
000003a0: ad50 ca3d 2147 c73d 9650 0cbd 6602 bc3c
000003b0: d8be 893d 11f8 0d3d 07e0 2dbd 2a18 8fbd
000003c0: 52bc 5c3d f128 be3d 3e27 d83d 750d efbb
000003d0: 2c5d 64bd 59d9 98bd aa63 323d 7e27 b1bd
000003e0: a5a4 803d d3d5 e43d 0907 19be 8d56 c0bd
000003f0: 19d2 1a3d 5b0e c4bd a57d 4f3d 9983 443c
-0.07637975 -0.012648782 -0.014636777 0.086656064 0.048415307 0.069619365 -0.03267828 -0.0531784
-0.10584213 0.03455744 0.1395917 0.013130849 -0.009476577 -0.014802995 -0.0022423028 -0.0036056016
-0.071682855 0.058162622 0.05771807 0.034456138 0.04265802 0.068894215 -0.0073122405 -0.015443193
0.030274764 0.098887034 0.15586044 0.011382283 0.05523318 0.008284914 -0.0021528762 -0.052234612
0.02813071 -0.060028713 0.03528738 -0.03483279 -0.02598477 -0.15453827 0.011372349 0.097895056
0.027286777 -0.06271407 -0.0053570047 0.23620832 0.056861814 -0.0011180677 -0.067757525 0.099929586
-0.06978561 -0.094784416 -0.15972044 -0.08501563 -0.07293184 0.1139153 -0.05114275 0.16025513
-0.087958045 0.0122970715 0.081080884 0.22619362 0.18938473 -0.095614284 0.043854002 -0.13603564
-0.025794782 -0.056915525 0.07883394 0.08580781 -0.12893692 -0.09856935 -0.02684321 -0.101125136
0.04101043 -0.042368233 0.15314576 -0.19928163 0.15485713 0.09082418 0.1777066 -0.21015698
0.1292344 0.06015531 -0.057809386 -0.00074935076 -0.11034008 0.026923053 -0.01902823 -0.07677362
0.013117371 0.025169443 0.14448555 0.002502052 -0.06130465 0.09988435 0.03045388 -0.016274609
0.02215463 -0.0019751652 -0.020218015 -0.037581313 -0.05459679 0.10371241 0.07203264 0.16304773
0.042875882 0.034811065 -0.10358713 -0.016074426 -0.10259565 -0.07277498 -0.12537836 -0.0829751
0.10007255 0.0021523973 -0.13838518 0.09699805 0.049120992 -0.11611657 0.09016392 0.027663937
0.05005243 -0.058370702 -0.14485654 0.15344939 -0.044399466 -0.1618194 -0.13510886 -0.07061517
-0.10972139 -0.004067654 -0.0026193587 -0.101239644 0.026646337 0.067856945 -0.01728622 -0.027953183
0.09638978 -0.010542842 -0.01913839 0.09237031 0.13352 0.058121573 -0.057250097 0.11714418
0.047258493 -0.016039109 0.15342532 -0.14863229 0.15908732 0.10217891 0.090032525 -0.12777258
0.051308714 -0.16522664 -0.0040997877 0.09731442 0.071294874 -0.0048518437 -0.10405549 0.13440204
0.019819817 0.013117915 -0.07432975 0.18314946 0.048617035 -0.12784854 0.19721743 0.124744974
0.09939794 -0.0010311333 0.13551831 -0.13184424 0.02325427 0.08040766 0.025223784 -0.14520545
0.026080739 -0.0152161345 -0.021571204 0.07436439 -0.08874697 0.055282697 -0.03142443 0.090744406
-0.13108318 0.06945663 0.09300895 -0.038735222 -0.052231323 -0.029728364 -0.048774872 0.0012660781
-0.05580268 -0.010433509 -0.037206523 0.017845644 -0.062363368 -0.071000874 -0.10004444 0.075185835
0.115794905 0.044394508 -0.01664254 -0.080257215 0.05218353 -0.017631613 -0.059512094 -0.02890111
0.017345853 0.009083932 0.087753646 0.1848343 0.021327462 -0.13811566 -0.028632186 0.07154871
0.0432481 0.021524115 0.017718779 -0.073918656 -0.06777879 0.014121408 0.0887635 0.053774696
0.07747355 0.13604672 0.0263837 0.08329175 0.09106953 -0.03905 -0.055690754 -0.13218613
0.09878669 0.09730364 -0.03425654 0.022950362 0.06725854 0.034660403 -0.042449977 -0.06987031
0.053890534 0.09285153 0.1055436 -0.0072953054 -0.055752918 -0.07463331 0.04355208 -0.08650111
0.062814035 0.11173596 -0.1494409 -0.09391508 0.03779802 -0.095730506 0.050656933 0.011994266

network_body._body_endoder.seq_layers.2.bias f4 [128]
00000000: 0000 0000 0000 0000 0000 0000 0000 0000
00000010: 0000 0000 0000 0000 0000 0000 0000 0000
00000020: 0000 0000 0000 0000 0000 0000 0000 0000
00000030: 0000 0000 0000 0000 0000 0000 0000 0000
00000040: 0000 0000 0000 0000 0000 0000 0000 0000
00000050: 0000 0000 0000 0000 0000 0000 0000 0000
00000060: 0000 0000 0000 0000 0000 0000 0000 0000
00000070: 0000 0000 0000 0000 0000 0000 0000 0000
00000080: 0000 0000 0000 0000 0000 0000 0000 0000
00000090: 0000 0000 0000 0000 0000 0000 0000 0000
000000a0: 0000 0000 0000 0000 0000 0000 0000 0000
000000b0: 0000 0000 0000 0000 0000 0000 0000 0000
000000c0: 0000 0000 0000 0000 0000 0000 0000 0000
000000d0: 0000 0000 0000 0000 0000 0000 0000 0000
000000e0: 0000 0000 0000 0000 0000 0000 0000 0000
000000f0: 0000 0000 0000 0000 0000 0000 0000 0000
00000100: 0000 0000 0000 0000 0000 0000 0000 0000
00000110: 0000 0000 0000 0000 0000 0000 0000 0000
00000120: 0000 0000 0000 0000 0000 0000 0000 0000
00000130: 0000 0000 0000 0000 0000 0000 0000 0000
00000140: 0000 0000 0000 0000 0000 0000 0000 0000
00000150: 0000 0000 0000 0000 0000 0000 0000 0000
00000160: 0000 0000 0000 0000 0000 0000 0000 0000
00000170: 0000 0000 0000 0000 0000 0000 0000 0000
00000180: 0000 0000 0000 0000 0000 0000 0000 0000
00000190: 0000 0000 0000 0000 0000 0000 0000 0000
000001a0: 0000 0000 0000 0000 0000 0000 0000 0000
000001b0: 0000 0000 0000 0000 0000 0000 0000 0000
000001c0: 0000 0000 0000 0000 0000 0000 0000 0000
000001d0: 0000 0000 0000 0000 0000 0000 0000 0000
000001e0: 0000 0000 0000 0000 0000 0000 0000 0000
000001f0: 0000 0000 0000 0000 0000 0000 0000 0000
0.0 0.0 0.0 0.0 0.0 0.0 0.0 0.0
0.0 0.0 0.0 0.0 0.0 0.0 0.0 0.0
0.0 0.0 0.0 0.0 0.0 0.0 0.0 0.0
0.0 0.0 0.0 0.0 0.0 0.0 0.0 0.0
0.0 0.0 0.0 0.0 0.0 0.0 0.0 0.0
0.0 0.0 0.0 0.0 0.0 0.0 0.0 0.0
0.0 0.0 0.0 0.0 0.0 0.0 0.0 0.0
0.0 0.0 0.0 0.0 0.0 0.0 0.0 0.0
0.0 0.0 0.0 0.0 0.0 0.0 0.0 0.0
0.0 0.0 0.0 0.0 0.0 0.0 0.0 0.0
0.0 0.0 0.0 0.0 0.0 0.0 0.0 0.0
0.0 0.0 0.0 0.0 0.0 0.0 0.0 0.0
0.0 0.0 0.0 0.0 0.0 0.0 0.0 0.0
0.0 0.0 0.0 0.0 0.0 0.0 0.0 0.0
0.0 0.0 0.0 0.0 0.0 0.0 0.0 0.0
0.0 0.0 0.0 0.0 0.0 0.0 0.0 0.0

action_model._discrete_distribution.branches.0.weight f4 [5, 128]
00000000: da70 9a3b 2313 c53b 0854 55ba 4a32 9abc
00000010: dcd7 9ebc ee68 81bc cfeb fd3a f883 e7bb
00000020: ce6d 123a 13d2 6ebb 48f2 a9ba 1b4a 0f3c
00000030: 72ae 6f3c dfe2 37bc 1c8b be3b cb00 3938
00000040: a0b4 fdbb f744 2fbc ba93 d43a 1c4e 86bc
00000050: 7859 cebc e09b fdbb d22a e4bb dbe7 7a3c
00000060: 1b65 d13b aaeb a8bb 37ff aa3a 92f7 413b
00000070: 2758 b43b afd6 80bb 0fea 733a 6740 d23b
00000080: 273b 1fbc 5d50 8f3c 94cb 9eba bf31 2fbb
00000090: db9b 87bb bd72 6b3b 7bb5 4bbb dd12 ec3b
000000a0: aa51 3ebc 1640 2cbb 3977 2abb 2fcb 843a
000000b0: d054 203b e065 b73a cb81 b5b9 7db4 b23b
000000c0: bf2d ddba a791 7e3b 90a3 4bbb b812 c03c
000000d0: 3b9b 0abc ad52 e33a 7a6b f33b efd3 06bb
000000e0: abe9 8fba 007b 023c 0e1a 0abc 72c4 ecbb
000000f0: 0bd5 bc3b dfa2 85ba 5a21 5d3c 8bfe 8f3b
00000100: 7a6d 1c3c 6865 6e3a eb84 293b e0c1 96ba
00000110: 35b1 cc37 a61b 373c 27e1 ef3b c658 32ba
00000120: 04d3 ad3b dad1 63b9 13d1 beba c4d0 44bc
00000130: e82a 08bb e70e 13bc 55cf 0dbc 05cf 85bc
00000140: f245 693c c48e 043c 82ba 9dbb fbb3 c2bb
00000150: ef02 5139 8510 b23c 5b83 1338 4fed 753b
00000160: 63f5 6dbb 589e 18bc 6941 183c eb69 1dbc
00000170: 939a 89bb 857b 993b 4318 c33b 3bb8 863c
00000180: da4d 283a bb4a 703b 72b4 5ebb 3fd4 203c
00000190: 4d28 46bc 9389 cd3a cb0d d5bc 3750 0a3b
000001a0: 170b 50bc c725 643a 88ea b7bc 27a2 23bc
000001b0: 2d15 00bb afe9 05bb a890 c5b9 fa09 813b
000001c0: 1b38 55bc 98bd 763b a35b 033b 1f9d 043b
000001d0: 26d9 3cbb 886a 8fbc c4d5 8bb7 8eb7 073b
000001e0: 9251 81bc a004 47bc b7b3 403c 1b6a 803c
000001f0: 207a 203b 232c 833b cc9b 46bc 2c0e 3f3c
00000200: 8fdf 34bb 875e 03bc bfd7 10bc bd7a a83b
00000210: eedd c5bb 35cc 053c 1584 d339 fbd0 b33b
00000220: 33e4 063c 3e2d 97bb abb9 b7bb dcf4 94bc
00000230: 7b2c dd3b f5a9 d638 76de 3c3c a310 453b
00000240: e123 393c afd3 4e3b 3e42 333c 4014 8d3b
00000250: 9f0a 633b 7122 86bc 0345 96bb fb48 743c
00000260: 2887 81bc 0832 e73b 1c56 37bc 122d 913a
00000270: cb58 993b ba35 7bba 361e 01bb b81c fa3b
00000280: 6f9c 5fbc ff24 d33b 48ce 783c bb9f fc3b
00000290: 5328 cf3a 7f12 4439 db35 e03b fe48 1fbc
000002a0: e647 973c ba26 013c dfef a5bc a94b 4bbb
000002b0: 90cb 86bc 0274 5ebb 2d31 56bb b000 33bb
000002c0: 3f57 e43b 076f f73b 3ca1 33ba 5305 d43c
000002d0: a0a1 273b 0f2d ab3b 39b0 003c 8b6f 543c
000002e0: 7571 7b3c cfd0 aabc 7ebd b43c 38fe e0bb
000002f0: 972f 4d3a ee99 9a3b 4b58 f2bb 0109 c7bb
00000300: db2a bdbb 2bad 5abc 239c f9bb d00b a93b
00000310: 2acd 663c 294e cc3b 0677 25bc 0e71 c63a
00000320: b3de 57bc 2390 25bc 638e 27bc 18f8 6cbb
00000330: e624 473c 67d8 213c d34f 6cbc 0875 d8ba
00000340: 1d0c 4ebc 44a4 b9bb 7945 903a aacf d93b
00000350: b7dd 82bc c09b c3bb 9ff0 963b 7380 fc3a
00000360: 5a20 46bc b725 683b 7567 c73b 3cb1 4b3c
00000370: b144 1ebc ef33 a63b ecb3 b7bb 6620 3c3c
00000380: 71ab cbbb f66c c5ba d3a1 d83b 9fa5 8339
00000390: 85ed 47bb 43a1 a7ba 8ee1 9539 2079 79bb
000003a0: 0b7d d4bb d183 91bc 6faa d63b 7c96 ab3b
000003b0: f4cc 03bc 7c16 373b 16db 1d3c 4162 bfbb
000003c0: bffe a83b 902a f03c 6215 833a b328 cbbb
000003d0: 3f71 ec3a ffb2 693b 97fe a7bb 8b0c c83b
000003e0: 68f6 7d3b 2a86 6e3b b3e5 93bb 93d7 3cbc
000003f0: 9881 37ba da06 fd3b 926e 3e3b 090d a33b
0.00471316 0.006014244 -0.0008137827 -0.018822808 -0.01939004 -0.015797105 0.0019372645 -0.0070652924
0.000558582 -0.0036441132 -0.0012965882 0.008745695 0.014628993 -0.011223524 0.005814923 4.4108176e-05
-0.0077424794 -0.010697595 0.0016218342 -0.016394667 -0.025189146 -0.007739529 -0.0069631124 0.015314068
0.0063902265 -0.0051550465 0.0013046031 0.0029597026 0.0055036726 -0.0039318423 0.0009304592 0.0064163688
-0.009718693 0.017494375 -0.0012115114 -0.0026732532 -0.0041384525 0.0035926544 -0.0031083513 0.007204397
-0.01161615 -0.0026283315 -0.0026011004 0.0010131354 0.0024464615 0.0013992153 -0.00034619714 0.005453645
-0.0016874595 0.003884414 -0.0031072833 0.023446426 -0.008459861 0.0017343365 0.0074285837 -0.00205731
-0.0010979673 0.007963896 -0.0084290635 -0.0072255665 0.0057627014 -0.0010195634 0.013496721 0.0043943576
0.009547586 0.000909409 0.0025866579 -0.0011501871 2.4401214e-05 0.0111760255 0.0073205414 -0.00068033894
0.005304696 -0.00021726583 -0.0014558159 -0.012012664 -0.0020777527 -0.008975721 -0.008655389 -0.016334066
0.014237868 0.008090679 -0.004813493 -0.0059418655 0.00019932886 0.021736393 3.5169865e-05 0.003752548
-0.0036309592 -0.009315096 0.009292939 -0.009607772 -0.004199335 0.004683914 0.00595382 0.01644527
0.0006420292 0.0036665637 -0.0033982066 0.009816228 -0.012094569 0.0015681259 -0.026007554 0.002110494
-0.0126979565 0.0008703139 -0.0224507 -0.009987391 -0.0019543872 -0.0020433476 -0.00037682545 0.003937957
-0.013013865 0.0037649628 0.0020043633 0.0020235253 -0.0028815954 -0.017506853 -1.6669634e-05 0.0020708772
-0.015785966 -0.012147099 0.011761597 0.015675595 0.0024486855 0.0040030642 -0.012122106 0.011661094
-0.0027599072 -0.008018143 -0.0088405 0.0051415847 -0.006038419 0.0081663625 0.00040343465 0.005487559
0.008233118 -0.0046135476 -0.00560685 -0.018183164 0.0067496873 0.00010235972 0.011527648 0.003006973
0.011300058 0.0031559279 0.010941086 0.0043053925 0.0034643782 -0.016373845 -0.0045858636 0.014909978
-0.015811518 0.0070555247 -0.011189964 0.0011076054 0.0046797744 -0.0009582896 -0.0019701845 0.007632818
-0.0136481365 0.0064436193 0.0151859 0.007709471 0.0015804864 0.00018698907 0.0068423576 -0.009721993
0.018466901 0.007882768 -0.020255981 -0.0031020439 -0.016454488 -0.0033943658 -0.003268312 -0.0027313642
0.0069684084 0.0075510773 -0.0006852334 0.025881445 0.0025578514 0.0052238773 0.007854515 0.012966047
0.0153468745 -0.02085152 0.022063013 -0.0068662427 0.0007827221 0.004718057 -0.0073957792 -0.0060740714
-0.005772931 -0.0133469505 -0.00761749 0.005158879 0.014087001 0.0062349034 -0.010099178 0.0015139894
-0.013175654 -0.010105166 -0.010226819 -0.0036158618 0.012154793 0.0098782545 -0.014423328 -0.001651437
-0.01257613 -0.005665334 0.0011007033 0.00664707 -0.015974863 -0.0059694946 0.004606321 0.0019264355
-0.012092674 0.003542287 0.006085331 0.012432393 -0.009659932 0.005072109 -0.005606165 0.011482334
-0.006215506 -0.001506238 0.006611088 0.00025109664 -0.0030506563 -0.0012789149 0.00028587546 -0.003806658
-0.006484633 -0.01776305 0.006551079 0.005236445 -0.00804447 0.0027936986 0.009634754 -0.00584057
0.005157321 0.02931717 0.0010000879 -0.00619992 0.0018039121 0.0035659669 -0.005126785 0.006105011
0.0038751606 0.0036395886 -0.0045134663 -0.011526006 -0.0007000207 0.007721764 0.0029057604 0.004975919

action_model._discrete_distribution.branches.0.bias f4 [5]
00000000: 0000 0000 0000 0000 0000 0000 0000 0000
00000010: 0000 0000
0.0 0.0 0.0 0.0 0.0

network_body._body_endoder.seq_layers.0.weight f4 [128, 5]
00000000: 071b 04bd 4900 413c 1c7d 1d3e 8d6e 9ebe
00000010: f914 7dbd 6a5a ed3e b7b0 7abe cc01 86be
00000020: af2f 38bf d471 25bf 74d1 cfbe 153f 25bf
00000030: e3f5 aa3e 303c 323d cee5 dd3e d195 683d
00000040: 0d72 9ebe 864e 18bf 2a09 13bf fa9b 073e
00000050: 2e70 2c3e bc33 fabd 1b6e e93d 893d 4bbd
00000060: be57 22bd de77 16bf 0eb1 b3be 714c 583f
00000070: d827 0b3e d756 ebbc e05b 1f3e c7b8 b73d
00000080: 10b3 02bf cc84 8dbe bffb f0be ba28 3abf
00000090: 62a9 48be 7b80 573d 580c 7abe 700f c5be
000000a0: 48e3 bcbb 22e2 be3d 2be0 46bf 5b9c aa3d
000000b0: 3148 a53e 81ea a8be 24cf a73e 85e8 7fbe
000000c0: c821 eebe e483 e3bd 31fc 3b3e 50c3 11bf
000000d0: 2831 3abe c2e7 0a3f 9747 7dbe a550 e1be
000000e0: d1db 003f cc6c b33e 4444 403f 5191 51bf
000000f0: 8aeb 443d c675 173d deea cebe 8550 853c
00000100: 51c5 6bbe cd5d 453e bab2 0b3f 9e6a fb3e
00000110: 67a8 82bd f9b1 79bf bfd7 05bf 0119 cebd
00000120: 9c2d ee3d ae55 073f 0649 76be 18c6 a8bc
00000130: 7ca1 c2be 254e 5dbe 9c3a ff3c 1729 0f3d
00000140: fb78 17bf 1a68 5a3c 29ea bbbe d590 4ebf
00000150: 823f ea3e 55ac 8c3e 5a6f 033f 8c30 bcbc
00000160: 5e9a 663d 2993 233e c820 87be 0567 e9be
00000170: b98a 28bf 4e33 2cbf 4e47 0dbe 8b1d 6fbe
00000180: 0b84 6abe c325 09bf 5daa 29be bb6d b63e
00000190: c578 c5be 0b98 463e 2630 173e de45 bf3e
000001a0: 36e8 6ebe 3546 1b3e 6b56 4fbf 80f0 683f
000001b0: 15e2 4f3e 502c bd3e 1afd 0abf 183f 20be
000001c0: 4d5a 21bf 386c f93e 513a ebbd 12d3 253e
000001d0: 4d3f ed3d b0c6 22be 52ec 933d 39de 3c39
000001e0: feba 07bf eb77 f5be 7404 e73e 96c8 7e3e
000001f0: 6c91 50be 022e 373e 0b45 51bf 827f bdbe
00000200: 74a7 ffbd 0558 61be 805f 49be 6a8d b13e
00000210: 46c6 cabe 10fe 99be d8d5 27bf d452 5ebd
00000220: 96ca 0cbe 6618 1cbe 7620 ea3e a7a3 98bf
00000230: 410c ce3e 47f3 e5bd 2908 8d3e 26bd 9cbe
00000240: f63d d23e fb13 4cbe 49c9 39bf 4ce1 2d3f
00000250: 561d 66be 6237 193f 4698 22bd 2cbe d1bd
00000260: 99a9 653e b8ca 42be 1f32 2abe 0114 e73d
00000270: 93a7 25bf dedf c53e 5c8c acbe 0fa1 563e
00000280: fb15 13be fc4a 4f3c f214 04bf a4d9 f53e
00000290: ec18 42be ae56 4e3f e377 903e 3b75 563e
000002a0: 6d5a 253f 0a45 6dbe 242a 263d 5dad 193d
000002b0: bc5d e5bd c2df 8abe f9e7 e7bd 8ccc bdbe
000002c0: 05d8 d6be 385f 043e c859 643d df67 453f
000002d0: 6744 a7bd d14c cfbd f624 67bc 95ff 703e
000002e0: 3028 3abd 83f6 3cbe feb9 17bf 2cd4 a73e
000002f0: 31fa c4be 8f52 b2be 4e6d bc3e 0967 713e
00000300: 1750 373f 3530 0e3f 7a83 cf3e b5ba 07bf
00000310: e930 6a3e 3329 9f3f 7411 d0bd 940f f5bd
00000320: 66fd 813e 2a12 87be 9297 293e 80e0 d03e
00000330: 3a6a 1abf 7bb3 a7be 4e05 d03d ab73 ab3e
00000340: f9cb 0fbe 7665 223e db3d 4ebd 3849 e63d
00000350: c0d1 953c e8fe 763e 0086 a5be 70ab 253d
00000360: c9ea c5bd ad8e 203e 8d71 823e 9947 37bf
00000370: 2952 9c3d 0a9f 013e 870c 09bf 74ad 53be
00000380: aca1 9dbc 8065 f63d 2a51 f63d 4bfe c63e
00000390: aad0 f03d d26d 89be a48f 4cbc 841d 223f
000003a0: 0a00 ce3d e519 bb3e 2b71 2cbf 875b d7be
000003b0: 1926 87bd a7e7 263f ba99 7f3e f911 5a3e
000003c0: aba7 63be 59fd e03d 3cfa 643d 7537 4bbf
000003d0: 6e71 4fbf ccc7 c5be bc58 a3be b72f f7bd
000003e0: 6916 953e f3f8 ae3d 84c6 4b3f 3073 4d3f
000003f0: 08bc cfbe c537 96be 7bd2 0c3e 3533 f2bd
-0.032252338 0.011779853 0.15379757 -0.3094372 -0.06178758 0.46358043 -0.24481474 -0.26173246
-0.7194776 -0.6462681 -0.40589488 -0.6454938 0.33390722 0.04351443 0.4333939 0.0567835
-0.3094639 -0.5949482 -0.5743586 0.13243094 0.16839668 -0.12216899 0.11397954 -0.04961923
-0.03963446 -0.5877665 -0.3509602 0.8449164 0.13589418 -0.028727932 0.15562391 0.0897079
-0.5105448 -0.27640378 -0.47067067 -0.72718394 -0.19595864 0.052612763 -0.24418771 -0.3848834
-0.0057643987 0.09320475 -0.77685803 0.08330604 0.3228164 -0.32991412 0.32775223 -0.24991043
-0.46510148 -0.111091405 0.18357922 -0.5693865 -0.18182814 0.54259884 -0.2473434 -0.4400684
0.50335413 0.35043943 0.75104165 -0.8186236 0.04807619 0.036977552 -0.40413564 0.016273746
-0.23024489 0.19274063 0.5456959 0.4910478 -0.063797764 -0.9753719 -0.5228233 -0.10063363
0.11629793 0.5286511 -0.24051294 -0.020602271 -0.38013828 -0.21611841 0.031155877 0.034951296
-0.59168977 0.013330484 -0.36702088 -0.80689746 0.45751578 0.2747523 0.51341784 -0.022972368
0.05629956 0.15974106 -0.26392198 -0.4558641 -0.65836674 -0.67265785 -0.13796732 -0.23351113
-0.22901933 -0.53573245 -0.16568895 0.35630593 -0.38568702 0.19393937 0.14764461 0.37357992
-0.23330769 0.151635 -0.8099124 0.90991974 0.20301087 0.3694787 -0.5429245 -0.15649068
-0.63028413 0.48715377 -0.11485732 0.16193798 0.11584339 -0.15896106 0.07222809 0.00018011862
-0.530197 -0.47943053 0.45120585 0.24881205 -0.20367974 0.17888644 -0.81745976 -0.37011343
-0.12483111 -0.22006233 -0.19665337 0.34678203 -0.39604396 -0.30076647 -0.65560675 -0.05427821
-0.13749155 -0.15243682 0.4572789 -1.1924943 0.40243724 -0.11228042 0.27545288 -0.3061306
0.41062897 -0.19929497 -0.7257276 0.679219 -0.22472128 0.5985013 -0.039696 -0.102413505
0.22427978 -0.19022644 -0.16620682 0.11283112 -0.6470882 0.3864736 -0.33700836 0.20959876
-0.14363854 0.012652155 -0.5159446 0.4801761 -0.1895482 0.8060101 0.28216466 0.20943157
0.64591104 -0.23170868 0.040567532 0.037518848 -0.11199519 -0.2712384 -0.11323542 -0.3707012
-0.41961685 0.12926948 0.055749685 0.7711162 -0.081673436 -0.101220734 -0.014107933 0.23534997
-0.045448482 -0.18453412 -0.59268177 0.32779062 -0.3847213 -0.34828612 0.36802143 0.23574461
0.7160658 0.5554231 0.40529996 -0.5301927 0.2287022 1.2434448 -0.10159579 -0.11965862
0.2538864 -0.26381046 0.16561726 0.4079628 -0.6031834 -0.3275412 0.10157262 0.33486685
-0.14042653 0.15859017 -0.05035196 0.11244434 0.018288493 0.24120677 -0.32328796 0.0404467
-0.09663922 0.15679426 0.25477257 -0.71593624 0.07632858 0.12658325 -0.5353474 -0.20671636
-0.01924213 0.12031078 0.120271996 0.38865885 0.117585495 -0.268416 -0.0124854185 0.6332629
0.10058601 0.36543193 -0.6736018 -0.42062017 -0.065990634 0.65197223 0.24960986 0.21295919
-0.22231929 0.10985822 0.055902705 -0.79381496 -0.81032455 -0.38628995 -0.31903636 -0.12069648
0.2911866 0.08543577 0.79599786 0.8025389 -0.40573144 -0.29339424 0.13752167 -0.11826173

network_body._body_endoder.seq_layers.0.bias f4 [128]
00000000: 0000 0000 0000 0000 0000 0000 0000 0000
00000010: 0000 0000 0000 0000 0000 0000 0000 0000
00000020: 0000 0000 0000 0000 0000 0000 0000 0000
00000030: 0000 0000 0000 0000 0000 0000 0000 0000
00000040: 0000 0000 0000 0000 0000 0000 0000 0000
00000050: 0000 0000 0000 0000 0000 0000 0000 0000
00000060: 0000 0000 0000 0000 0000 0000 0000 0000
00000070: 0000 0000 0000 0000 0000 0000 0000 0000
00000080: 0000 0000 0000 0000 0000 0000 0000 0000
00000090: 0000 0000 0000 0000 0000 0000 0000 0000
000000a0: 0000 0000 0000 0000 0000 0000 0000 0000
000000b0: 0000 0000 0000 0000 0000 0000 0000 0000
000000c0: 0000 0000 0000 0000 0000 0000 0000 0000
000000d0: 0000 0000 0000 0000 0000 0000 0000 0000
000000e0: 0000 0000 0000 0000 0000 0000 0000 0000
000000f0: 0000 0000 0000 0000 0000 0000 0000 0000
00000100: 0000 0000 0000 0000 0000 0000 0000 0000
00000110: 0000 0000 0000 0000 0000 0000 0000 0000
00000120: 0000 0000 0000 0000 0000 0000 0000 0000
00000130: 0000 0000 0000 0000 0000 0000 0000 0000
00000140: 0000 0000 0000 0000 0000 0000 0000 0000
00000150: 0000 0000 0000 0000 0000 0000 0000 0000
00000160: 0000 0000 0000 0000 0000 0000 0000 0000
00000170: 0000 0000 0000 0000 0000 0000 0000 0000
00000180: 0000 0000 0000 0000 0000 0000 0000 0000
00000190: 0000 0000 0000 0000 0000 0000 0000 0000
000001a0: 0000 0000 0000 0000 0000 0000 0000 0000
000001b0: 0000 0000 0000 0000 0000 0000 0000 0000
000001c0: 0000 0000 0000 0000 0000 0000 0000 0000
000001d0: 0000 0000 0000 0000 0000 0000 0000 0000
000001e0: 0000 0000 0000 0000 0000 0000 0000 0000
000001f0: 0000 0000 0000 0000 0000 0000 0000 0000
0.0 0.0 0.0 0.0 0.0 0.0 0.0 0.0
0.0 0.0 0.0 0.0 0.0 0.0 0.0 0.0
0.0 0.0 0.0 0.0 0.0 0.0 0.0 0.0
0.0 0.0 0.0 0.0 0.0 0.0 0.0 0.0
0.0 0.0 0.0 0.0 0.0 0.0 0.0 0.0
0.0 0.0 0.0 0.0 0.0 0.0 0.0 0.0
0.0 0.0 0.0 0.0 0.0 0.0 0.0 0.0
0.0 0.0 0.0 0.0 0.0 0.0 0.0 0.0
0.0 0.0 0.0 0.0 0.0 0.0 0.0 0.0
0.0 0.0 0.0 0.0 0.0 0.0 0.0 0.0
0.0 0.0 0.0 0.0 0.0 0.0 0.0 0.0
0.0 0.0 0.0 0.0 0.0 0.0 0.0 0.0
0.0 0.0 0.0 0.0 0.0 0.0 0.0 0.0
0.0 0.0 0.0 0.0 0.0 0.0 0.0 0.0
0.0 0.0 0.0 0.0 0.0 0.0 0.0 0.0
0.0 0.0 0.0 0.0 0.0 0.0 0.0 0.0

network_body._body_endoder.seq_layers.2.weight f4 [128, 128]
00000000: 1d90 d83d b055 4bbb 71d9 78bd d28f e03c
00000010: 22c1 82bc 7255 a3bd 09bf 04bd def5 a3bc
00000020: 9185 b9bb ac8b 15be 7d95 60bd 833f e1bd
00000030: f250 03be a856 51be 9cba 98bd b18e afbd
00000040: 42cb 983d ecf5 323d f6ef 84bd b80a 40be
00000050: d855 dabc ad96 09bd 24d1 febd b4b1 36bd
00000060: db16 053e a9ab b6bd 8983 b0bd cff1 77bd
00000070: f089 67bc b6f7 d4bd 5ea6 44bd cc0e d7bc
00000080: fdd2 4abd 8f4c 09bc 1e95 0cbe 8d2a 15be
00000090: 123f b63d c76d 593d c697 d73d 72cb 493d
000000a0: 20e3 01be b49c a4bc d6b1 90bd c073 1d3e
000000b0: bd9c b33d a39e 8b3d f0fb 1e3c db79 163d
000000c0: 6a48 52bd af08 233d 3391 ff3c f023 41be
000000d0: b6e4 e33b 6608 a43d 99b5 8cbd a6a5 863b
000000e0: 699f 3a3d 87e7 4f3d 7744 6abd b181 2abd
000000f0: 412e 8cbd 47f4 843d a495 06bd 3205 50be
00000100: c353 d5bc bb9a f8bc 8391 a5bc 036c 8ebc
00000110: bcc2 413d 3d71 903d 254d c7bd 4d8d babd
00000120: 3fcd b13c 43ee 11bd 2346 b73d f06d 9bbc
00000130: 0f55 f73c fb29 85bd 7643 49bb fd6e 393e
00000140: b44a daba 00ad 163d a4c5 ca3d 9373 733d
00000150: 912a 9abd ae92 29be 5135 df3d 8557 f43d
00000160: 477c f93d aa1d 333e 5dbb 9fbd 70ae 0b3e
00000170: 9560 b23d 6f20 e1bb 7231 c5bd 454a 95bd
00000180: 5ca9 603d 5f44 43bb 8cf2 693d c76b 05bd
00000190: ae5e 923e 0a2d a73c 043a 2abb d036 06bd
000001a0: 0d0b 803d d5c4 393e 5223 9c3c d4a6 e1bd
000001b0: d731 9e3d d5c9 fc3c 12f6 17bd 1005 15be
000001c0: 7012 d83c 7098 07bd 77a1 0abe 8eef ce3c
000001d0: 524a 4fbe 9113 013e 89de 9a3d 4844 303e
000001e0: f939 ddba 5170 8c3d d926 39bd d53d d63d
000001f0: 663e 97bc c6cb 073e 7718 b23c 7d8c ddbd
00000200: faa8 2abe 6eed e93d dd65 223e 0bb0 863d
00000210: 3313 e53c b96f 5d3d 3278 9e3c ad73 96bd
00000220: da29 583e 61ff 8b3d e7d5 08bd 6193 4d3c
00000230: 3bfc 953d 425f dabd 1aaf 46be fbc2 2e3e
00000240: 7767 fd3d ec77 e43c 22cc fabd e5a0 eebd
00000250: 59bc 543c 8716 953c e35a 8abd 965d 03be
00000260: 0b18 013e c793 dbbd e95c 5bbc e7b4 6d3d
00000270: c688 c63d 83b4 7dbd a8da 4dbd 5d5d 66bd
00000280: ce0a 06bd 8ac3 1abd d5e5 a73d cd26 1bbd
00000290: e21d c1bd cac7 45bd 4732 1a3e fce9 b7bd
000002a0: 9c2d 33bb b7fe b1bd dd7a 403e 0cf8 853d
000002b0: 67e4 f6bd 1094 4f3e e2b3 84bd c70a 253d
000002c0: 70b8 17bc 834d 323d 26ae 28bd 95ee 27be
000002d0: c261 87bd 91a0 0dbc 529f 8e3d 6412 3d3d
000002e0: 32a7 f03d 37d6 5d3c c147 343e 5075 2b3b
000002f0: d18b 8abc aa50 843d 61df 793d 08f2 583d
00000300: ec28 113c 9fdb 203e 9b97 d23d 4e71 ad3d
00000310: f315 60bd 9b70 5d3e 0aea 7abc bc2f 62bc
00000320: 7d93 863d 0a0a cf3d f42c 16bc 9d9f 39bc
00000330: bf70 05bd 0e21 ac3d 4c09 06bd 9d4e b2bd
00000340: 7d41 5b3e f63a 633d e38c 7bbb 61ea 823d
00000350: 3209 573d 6cf7 aabd 15d8 c93c 3344 bb3c
00000360: 87ad 193d fbc1 1b3e afa0 72bd 520b a13d
00000370: eeb7 a93d 076b 39bd e4d5 e83b 6aab 80bd
00000380: b953 0fbb cdcf 043e 602a ab3c 64da 213e
00000390: 1b3b 2dbd 3408 1bbe 3487 3d3e c7cb 6b3c
000003a0: 9261 0abd 0a8f 633b 53a8 32bd 3039 39bc
000003b0: e58a ec3c 27cd d8bd 96d4 1d3c d858 40bd
000003c0: 3831 45bd a839 a8bd 603d 183e d438 8ebd
000003d0: f07d 01be a9d9 68bd 30de b5bc 5a33 8dbc
000003e0: 3a1a 3c3e 2c4e 843d 3c80 cdbd c7f9 913d
000003f0: a412 d8bd 3eaa e4bb 57bf e6bd 96d1 17bc
0.105743624 -0.0031026416 -0.060754243 0.027412329 -0.015961234 -0.07975282 -0.032408748 -0.0200147
-0.0056616743 -0.14604062 -0.054830063 -0.10998442 -0.12823847 -0.20443213 -0.07457468 -0.08572138
0.07460643 0.04369156 -0.064910814 -0.18754089 -0.026652262 -0.03359096 -0.12442234 -0.044603065
0.12997 -0.0891946 -0.08618838 -0.06053334 -0.014132008 -0.103988096 -0.048010223 -0.026252173
-0.04951762 -0.008380069 -0.13728759 -0.14567013 0.088987485 0.053083207 0.10526995 0.049266286
-0.12684298 -0.020094253 -0.070651695 0.15376186 0.0877013 0.06817367 0.009703621 0.036737304
-0.05133859 0.039803203 0.031197166 -0.18861365 0.0069547547 0.080094144 -0.068705745 0.0041091023
0.04556218 0.05075791 -0.0571942 -0.04162759 -0.0684476 0.06491905 -0.032857552 -0.20314482
-0.026040917 -0.030347219 -0.020210987 -0.017385488 0.047304854 0.070528485 -0.09731511 -0.09108982
0.021704314 -0.035627615 0.089489244 -0.01897332 0.030191926 -0.06502148 -0.0030710376 0.18108745
-0.0016654343 0.03678608 0.09900978 0.059436392 -0.0752765 -0.1655986 0.10898841 0.119307555
0.12181907 0.17491785 -0.077994086 0.13640761 0.08709828 -0.0068703215 -0.096285716 -0.072895564
0.054849014 -0.002979539 0.057116076 -0.032573488 0.2858786 0.020407218 -0.0025974521 -0.032767117
0.06252108 0.18141492 0.01905981 -0.11018148 0.0772435 0.03085796 -0.037099905 -0.14552712
0.02637598 -0.03310436 -0.13538156 0.025260713 -0.20243195 0.1260512 0.075619765 0.17213547
-0.0016878239 0.0685736 -0.045203064 0.10461012 -0.018462371 0.13261327 0.021740181 -0.10817812
-0.16666022 0.11422239 0.1585917 0.06576546 0.027963256 0.054061625 0.019344423 -0.07346282
0.21109715 0.06835819 -0.03340712 0.012547345 0.073235 -0.106627 -0.19402733 0.17066567
0.1237325 0.027889214 -0.122459665 -0.11651782 0.012984359 0.018199218 -0.067556165 -0.12828669
0.12606828 -0.10721546 -0.013388851 0.05803385 0.09694056 -0.061939728 -0.050257355 -0.056241382
-0.032725148 -0.037784137 0.08198134 -0.0378788 -0.09429528 -0.048286237 0.15058242 -0.08980176
-0.0027340418 -0.08691161 0.18796869 0.06541452 -0.12055283 0.20271325 -0.064796224 0.04029348
-0.009260282 0.043530952 -0.041181706 -0.16399606 -0.06610443 -0.008644239 0.06963982 0.046160117
0.1175064 0.013539842 0.17605497 0.0026162453 -0.016912373 0.06460698 0.061004046 0.052965194
0.008859854 0.15708779 0.10282823 0.08468877 -0.054708432 0.21624987 -0.015314588 -0.013805326
0.065711 0.10109337 -0.009165991 -0.011329559 -0.032578226 0.08404742 -0.03272371 -0.087064005
0.214117 0.05547615 -0.0038383536 0.063923605 0.052499004 -0.08347973 0.024639169 0.022859668
0.037519004 0.15210716 -0.05923527 0.07863487 0.08287035 -0.045268085 0.007105576 -0.06282695
-0.002186997 0.12969895 0.02089423 0.15805966 -0.042292695 -0.15139848 0.18508607 0.014391846
-0.033784457 0.003472271 -0.043617558 -0.0113051385 0.028874824 -0.10586005 0.009633204 -0.046959728
-0.04814264 -0.08214122 0.14867163 -0.06944433 -0.12645698 -0.056848202 -0.022200674 -0.0172364
0.1836938 0.064602226 -0.100342244 0.07127719 -0.105504304 -0.0069783023 -0.11266964 -0.009266278

network_body._body_endoder.seq_layers.2.bias f4 [128]
00000000: 0000 0000 0000 0000 0000 0000 0000 0000
00000010: 0000 0000 0000 0000 0000 0000 0000 0000
00000020: 0000 0000 0000 0000 0000 0000 0000 0000
00000030: 0000 0000 0000 0000 0000 0000 0000 0000
00000040: 0000 0000 0000 0000 0000 0000 0000 0000
00000050: 0000 0000 0000 0000 0000 0000 0000 0000
00000060: 0000 0000 0000 0000 0000 0000 0000 0000
00000070: 0000 0000 0000 0000 0000 0000 0000 0000
00000080: 0000 0000 0000 0000 0000 0000 0000 0000
00000090: 0000 0000 0000 0000 0000 0000 0000 0000
000000a0: 0000 0000 0000 0000 0000 0000 0000 0000
000000b0: 0000 0000 0000 0000 0000 0000 0000 0000
000000c0: 0000 0000 0000 0000 0000 0000 0000 0000
000000d0: 0000 0000 0000 0000 0000 0000 0000 0000
000000e0: 0000 0000 0000 0000 0000 0000 0000 0000
000000f0: 0000 0000 0000 0000 0000 0000 0000 0000
00000100: 0000 0000 0000 0000 0000 0000 0000 0000
00000110: 0000 0000 0000 0000 0000 0000 0000 0000
00000120: 0000 0000 0000 0000 0000 0000 0000 0000
00000130: 0000 0000 0000 0000 0000 0000 0000 0000
00000140: 0000 0000 0000 0000 0000 0000 0000 0000
00000150: 0000 0000 0000 0000 0000 0000 0000 0000
00000160: 0000 0000 0000 0000 0000 0000 0000 0000
00000170: 0000 0000 0000 0000 0000 0000 0000 0000
00000180: 0000 0000 0000 0000 0000 0000 0000 0000
00000190: 0000 0000 0000 0000 0000 0000 0000 0000
000001a0: 0000 0000 0000 0000 0000 0000 0000 0000
000001b0: 0000 0000 0000 0000 0000 0000 0000 0000
000001c0: 0000 0000 0000 0000 0000 0000 0000 0000
000001d0: 0000 0000 0000 0000 0000 0000 0000 0000
000001e0: 0000 0000 0000 0000 0000 0000 0000 0000
000001f0: 0000 0000 0000 0000 0000 0000 0000 0000
0.0 0.0 0.0 0.0 0.0 0.0 0.0 0.0
0.0 0.0 0.0 0.0 0.0 0.0 0.0 0.0
0.0 0.0 0.0 0.0 0.0 0.0 0.0 0.0
0.0 0.0 0.0 0.0 0.0 0.0 0.0 0.0
0.0 0.0 0.0 0.0 0.0 0.0 0.0 0.0
0.0 0.0 0.0 0.0 0.0 0.0 0.0 0.0
0.0 0.0 0.0 0.0 0.0 0.0 0.0 0.0
0.0 0.0 0.0 0.0 0.0 0.0 0.0 0.0
0.0 0.0 0.0 0.0 0.0 0.0 0.0 0.0
0.0 0.0 0.0 0.0 0.0 0.0 0.0 0.0
0.0 0.0 0.0 0.0 0.0 0.0 0.0 0.0
0.0 0.0 0.0 0.0 0.0 0.0 0.0 0.0
0.0 0.0 0.0 0.0 0.0 0.0 0.0 0.0
0.0 0.0 0.0 0.0 0.0 0.0 0.0 0.0
0.0 0.0 0.0 0.0 0.0 0.0 0.0 0.0
0.0 0.0 0.0 0.0 0.0 0.0 0.0 0.0

value_heads.value_heads.extrinsic.weight f4 [1, 128]
00000000: 6f9e 45bd 47fb ba3d 48c0 e6bd 15d1 7cbd
00000010: 85ca efbd 9f01 5b3e 6101 0e3e 280a 83bd
00000020: d327 b93d a994 313e a608 8b3d dcb1 24be
00000030: 7ffe 96bd 3c73 bbbd 8911 123e 8695 ba3d
00000040: 3de9 333d 2bc1 9d3d ec43 51be 39aa 85bc
00000050: 8199 383e b06e 2ebe fa17 f93d 43e5 5a3e
00000060: 3681 09be 6768 c4bc 4bdf 223d df86 223d
00000070: ba1c 9fbc 829e ae3b 1c0e 0bbe 7960 5a3e
00000080: c2e6 bbbd 952a 943d 92a5 543e b6f2 e5bd
00000090: d069 893d b7ec 30be fbd4 71bd 2afc 15bd
000000a0: 2ec5 d1bd 3402 e73d 6521 1f3e 05a7 6b3d
000000b0: a85e b2bd 1af7 843d 128e 2dbc b569 2abe
000000c0: b666 f03d 63fd 8b3d 5825 e8bd f8d6 37bd
000000d0: 056d dcbd 3de0 cdbd 2a28 5e3d 996b babd
000000e0: 2b5a 7abd fb70 aa3d 4342 073e 6365 9cbd
000000f0: a716 7c3d 0c2b 41bd 97a5 163e 05bc 403d
00000100: c288 5bbd 1704 8e3c 6766 4cbe 7eba 0f3e
00000110: cc8a 333e f6ec 0fbe a121 07be 7d45 dbbd
00000120: 2793 2f3e 670f 30bc 1166 eabd a38d 6ebc
00000130: 5f11 0abd 60f8 36bd e238 073d be16 183e
00000140: 350d 313e ae10 4cbe d1f6 f03d 3b56 5fbc
00000150: 0817 e63d f2d2 4a3e 4625 333e 191c a93d
00000160: f7f8 19be a619 85bd 21b9 ab3d 29fe 123e
00000170: 1ffd 383e 1bb3 61bd b2da 153c 71fe 083e
00000180: 4289 1abb ec12 43be 46d9 283e 1af3 02be
00000190: 4932 e13d 6566 c63d 3908 453e b681 3f3e
000001a0: 8d97 c8bd b733 0f3e cc02 293d 6fd9 3bbe
000001b0: d52f 41bd b71e 2b3e a5f1 033e eb5e 50bd
000001c0: 4850 00be 414b 04bd 85c4 17be 0c07 523e
000001d0: 779a 3abe 18a8 2f3e a075 f43d 1e45 06be
000001e0: 4a75 393e 0d95 33be 119b 4dbe 1bbc 3f3d
000001f0: 39a4 493e 335a 143e 10c3 b93d f819 03be
-0.048246797 0.091299586 -0.112671435 -0.061722834 -0.117085494 0.21387337 0.13867714 -0.063984215
0.09040799 0.17341866 0.06788759 -0.16083473 -0.0737276 -0.091528386 0.14264502 0.091105506
0.043923605 0.077028595 -0.20436066 -0.01631652 0.18027307 -0.17034411 0.12162776 0.21376519
-0.13428196 -0.023975564 0.03976373 0.039679404 -0.019422878 0.005328954 -0.13579601 0.21325864
-0.09174873 0.072346844 0.20766285 -0.11227934 0.06709635 -0.172778 -0.059041005 -0.036617436
-0.10242687 0.11279717 0.15540083 0.05753233 -0.087094605 0.064924434 -0.010592954 -0.16641887
0.117383406 0.06835439 -0.11335248 -0.044882745 -0.10762981 -0.10052536 0.054237522 -0.09102554
-0.061121147 0.083223306 0.1320887 -0.076365255 0.06154504 -0.047160193 0.14711605 0.04705431
-0.05359722 0.017335935 -0.19960938 0.14035985 0.17533416 -0.14055237 -0.13196422 -0.10706613
0.17145978 -0.01074586 -0.11445249 -0.014560136 -0.033707973 -0.044670463 0.033013232 0.14852425
0.17290194 -0.19928238 0.117658265 -0.013631399 0.112348616 0.19807032 0.17494687 0.08257312
-0.15036379 -0.06499033 0.0838492 0.14354767 0.18065308 -0.05510245 0.009146379 0.13378312
-0.0023580347 -0.19050187 0.16489133 -0.12788048 0.10995919 0.09687499 0.19241418 0.18701825
-0.09794531 0.13984571 0.041262433 -0.18344663 -0.047164757 0.16710936 0.12885149 -0.05087177
-0.12530625 -0.03229833 -0.1482106 0.205105 -0.18222986 0.17153966 0.11936498 -0.13112304
0.18111148 -0.17537327 -0.20078684 0.04681025 0.19691552 0.14487533 0.09070408 -0.12802875
